UNet2DConditionModel(
  (time_embedding): Module(
    (linear_1): Linear(in_features=320, out_features=1280, bias=True)
    (act): SiLU()
    (linear_2): Linear(in_features=1280, out_features=1280, bias=True)
  )
  (add_embedding): Module(
    (linear_1): Linear(in_features=2816, out_features=1280, bias=True)
    (act): SiLU()
    (linear_2): Linear(in_features=1280, out_features=1280, bias=True)
  )
  (conv_in): Conv2d(4, 320, kernel_size=(3, 3), stride=(1, 1), padding=(1, 1))
  (down_blocks): Module(
    (0): Module(
      (resnets): Module(
        (0): Module(
          (norm1): GroupNorm(32, 320, eps=1e-05, affine=True)
          (nonlinearity): SiLU()
          (conv1): Conv2d(320, 320, kernel_size=(3, 3), stride=(1, 1), padding=(1, 1))
          (time_emb_proj): Linear(in_features=1280, out_features=320, bias=True)
          (norm2): GroupNorm(32, 320, eps=1e-05, affine=True)
          (dropout): Dropout(p=0.0, inplace=False)
          (conv2): Conv2d(320, 320, kernel_size=(3, 3), stride=(1, 1), padding=(1, 1))
        )
        (1): Module(
          (norm1): GroupNorm(32, 320, eps=1e-05, affine=True)
          (nonlinearity): SiLU()
          (conv1): Conv2d(320, 320, kernel_size=(3, 3), stride=(1, 1), padding=(1, 1))
          (time_emb_proj): Linear(in_features=1280, out_features=320, bias=True)
          (norm2): GroupNorm(32, 320, eps=1e-05, affine=True)
          (dropout): Dropout(p=0.0, inplace=False)
          (conv2): Conv2d(320, 320, kernel_size=(3, 3), stride=(1, 1), padding=(1, 1))
        )
      )
      (downsamplers): Module(
        (0): Module(
          (conv): Conv2d(320, 320, kernel_size=(3, 3), stride=(2, 2), padding=(1, 1))
        )
      )
    )
    (1): Module(
      (resnets): Module(
        (0): Module(
          (norm1): GroupNorm(32, 320, eps=1e-05, affine=True)
          (nonlinearity): SiLU()
          (conv1): Conv2d(320, 640, kernel_size=(3, 3), stride=(1, 1), padding=(1, 1))
          (time_emb_proj): Linear(in_features=1280, out_features=640, bias=True)
          (norm2): GroupNorm(32, 640, eps=1e-05, affine=True)
          (dropout): Dropout(p=0.0, inplace=False)
          (conv2): Conv2d(640, 640, kernel_size=(3, 3), stride=(1, 1), padding=(1, 1))
          (conv_shortcut): Conv2d(320, 640, kernel_size=(1, 1), stride=(1, 1))
        )
        (1): Module(
          (norm1): GroupNorm(32, 640, eps=1e-05, affine=True)
          (nonlinearity): SiLU()
          (conv1): Conv2d(640, 640, kernel_size=(3, 3), stride=(1, 1), padding=(1, 1))
          (time_emb_proj): Linear(in_features=1280, out_features=640, bias=True)
          (norm2): GroupNorm(32, 640, eps=1e-05, affine=True)
          (dropout): Dropout(p=0.0, inplace=False)
          (conv2): Conv2d(640, 640, kernel_size=(3, 3), stride=(1, 1), padding=(1, 1))
        )
      )
      (attentions): Module(
        (0): Module(
          (norm): GroupNorm(32, 640, eps=1e-06, affine=True)
          (proj_in): Linear(in_features=640, out_features=640, bias=True)
          (transformer_blocks): Module(
            (0): Module(
              (norm1): LayerNorm((640,), eps=1e-05, elementwise_affine=True)
              (attn1): Module(
                (to_q): Linear(in_features=640, out_features=640, bias=False)
                (to_k): Linear(in_features=640, out_features=640, bias=False)
                (to_v): Linear(in_features=640, out_features=640, bias=False)
                (to_out): Module(
                  (0): Linear(in_features=640, out_features=640, bias=True)
                  (1): Dropout(p=0.0, inplace=False)
                )
              )
              (norm2): LayerNorm((640,), eps=1e-05, elementwise_affine=True)
              (attn2): Module(
                (to_q): Linear(in_features=640, out_features=640, bias=False)
                (to_k): Linear(in_features=2048, out_features=640, bias=False)
                (to_v): Linear(in_features=2048, out_features=640, bias=False)
                (to_out): Module(
                  (0): Linear(in_features=640, out_features=640, bias=True)
                  (1): Dropout(p=0.0, inplace=False)
                )
              )
              (norm3): LayerNorm((640,), eps=1e-05, elementwise_affine=True)
              (ff): Module(
                (net): Module(
                  (0): Module(
                    (proj): Linear(in_features=640, out_features=5120, bias=True)
                  )
                  (1): Dropout(p=0.0, inplace=False)
                  (2): Linear(in_features=2560, out_features=640, bias=True)
                )
              )
            )
            (1): Module(
              (norm1): LayerNorm((640,), eps=1e-05, elementwise_affine=True)
              (attn1): Module(
                (to_q): Linear(in_features=640, out_features=640, bias=False)
                (to_k): Linear(in_features=640, out_features=640, bias=False)
                (to_v): Linear(in_features=640, out_features=640, bias=False)
                (to_out): Module(
                  (0): Linear(in_features=640, out_features=640, bias=True)
                  (1): Dropout(p=0.0, inplace=False)
                )
              )
              (norm2): LayerNorm((640,), eps=1e-05, elementwise_affine=True)
              (attn2): Module(
                (to_q): Linear(in_features=640, out_features=640, bias=False)
                (to_k): Linear(in_features=2048, out_features=640, bias=False)
                (to_v): Linear(in_features=2048, out_features=640, bias=False)
                (to_out): Module(
                  (0): Linear(in_features=640, out_features=640, bias=True)
                  (1): Dropout(p=0.0, inplace=False)
                )
              )
              (norm3): LayerNorm((640,), eps=1e-05, elementwise_affine=True)
              (ff): Module(
                (net): Module(
                  (0): Module(
                    (proj): Linear(in_features=640, out_features=5120, bias=True)
                  )
                  (1): Dropout(p=0.0, inplace=False)
                  (2): Linear(in_features=2560, out_features=640, bias=True)
                )
              )
            )
          )
          (proj_out): Linear(in_features=640, out_features=640, bias=True)
        )
        (1): Module(
          (norm): GroupNorm(32, 640, eps=1e-06, affine=True)
          (proj_in): Linear(in_features=640, out_features=640, bias=True)
          (transformer_blocks): Module(
            (0): Module(
              (norm1): LayerNorm((640,), eps=1e-05, elementwise_affine=True)
              (attn1): Module(
                (to_q): Linear(in_features=640, out_features=640, bias=False)
                (to_k): Linear(in_features=640, out_features=640, bias=False)
                (to_v): Linear(in_features=640, out_features=640, bias=False)
                (to_out): Module(
                  (0): Linear(in_features=640, out_features=640, bias=True)
                  (1): Dropout(p=0.0, inplace=False)
                )
              )
              (norm2): LayerNorm((640,), eps=1e-05, elementwise_affine=True)
              (attn2): Module(
                (to_q): Linear(in_features=640, out_features=640, bias=False)
                (to_k): Linear(in_features=2048, out_features=640, bias=False)
                (to_v): Linear(in_features=2048, out_features=640, bias=False)
                (to_out): Module(
                  (0): Linear(in_features=640, out_features=640, bias=True)
                  (1): Dropout(p=0.0, inplace=False)
                )
              )
              (norm3): LayerNorm((640,), eps=1e-05, elementwise_affine=True)
              (ff): Module(
                (net): Module(
                  (0): Module(
                    (proj): Linear(in_features=640, out_features=5120, bias=True)
                  )
                  (1): Dropout(p=0.0, inplace=False)
                  (2): Linear(in_features=2560, out_features=640, bias=True)
                )
              )
            )
            (1): Module(
              (norm1): LayerNorm((640,), eps=1e-05, elementwise_affine=True)
              (attn1): Module(
                (to_q): Linear(in_features=640, out_features=640, bias=False)
                (to_k): Linear(in_features=640, out_features=640, bias=False)
                (to_v): Linear(in_features=640, out_features=640, bias=False)
                (to_out): Module(
                  (0): Linear(in_features=640, out_features=640, bias=True)
                  (1): Dropout(p=0.0, inplace=False)
                )
              )
              (norm2): LayerNorm((640,), eps=1e-05, elementwise_affine=True)
              (attn2): Module(
                (to_q): Linear(in_features=640, out_features=640, bias=False)
                (to_k): Linear(in_features=2048, out_features=640, bias=False)
                (to_v): Linear(in_features=2048, out_features=640, bias=False)
                (to_out): Module(
                  (0): Linear(in_features=640, out_features=640, bias=True)
                  (1): Dropout(p=0.0, inplace=False)
                )
              )
              (norm3): LayerNorm((640,), eps=1e-05, elementwise_affine=True)
              (ff): Module(
                (net): Module(
                  (0): Module(
                    (proj): Linear(in_features=640, out_features=5120, bias=True)
                  )
                  (1): Dropout(p=0.0, inplace=False)
                  (2): Linear(in_features=2560, out_features=640, bias=True)
                )
              )
            )
          )
          (proj_out): Linear(in_features=640, out_features=640, bias=True)
        )
      )
      (downsamplers): Module(
        (0): Module(
          (conv): Conv2d(640, 640, kernel_size=(3, 3), stride=(2, 2), padding=(1, 1))
        )
      )
    )
    (2): Module(
      (resnets): Module(
        (0): Module(
          (norm1): GroupNorm(32, 640, eps=1e-05, affine=True)
          (nonlinearity): SiLU()
          (conv1): Conv2d(640, 1280, kernel_size=(3, 3), stride=(1, 1), padding=(1, 1))
          (time_emb_proj): Linear(in_features=1280, out_features=1280, bias=True)
          (norm2): GroupNorm(32, 1280, eps=1e-05, affine=True)
          (dropout): Dropout(p=0.0, inplace=False)
          (conv2): Conv2d(1280, 1280, kernel_size=(3, 3), stride=(1, 1), padding=(1, 1))
          (conv_shortcut): Conv2d(640, 1280, kernel_size=(1, 1), stride=(1, 1))
        )
        (1): Module(
          (norm1): GroupNorm(32, 1280, eps=1e-05, affine=True)
          (nonlinearity): SiLU()
          (conv1): Conv2d(1280, 1280, kernel_size=(3, 3), stride=(1, 1), padding=(1, 1))
          (time_emb_proj): Linear(in_features=1280, out_features=1280, bias=True)
          (norm2): GroupNorm(32, 1280, eps=1e-05, affine=True)
          (dropout): Dropout(p=0.0, inplace=False)
          (conv2): Conv2d(1280, 1280, kernel_size=(3, 3), stride=(1, 1), padding=(1, 1))
        )
      )
      (attentions): Module(
        (0): Module(
          (norm): GroupNorm(32, 1280, eps=1e-06, affine=True)
          (proj_in): Linear(in_features=1280, out_features=1280, bias=True)
          (transformer_blocks): Module(
            (0): Module(
              (norm1): LayerNorm((1280,), eps=1e-05, elementwise_affine=True)
              (attn1): Module(
                (to_q): Linear(in_features=1280, out_features=1280, bias=False)
                (to_k): Linear(in_features=1280, out_features=1280, bias=False)
                (to_v): Linear(in_features=1280, out_features=1280, bias=False)
                (to_out): Module(
                  (0): Linear(in_features=1280, out_features=1280, bias=True)
                  (1): Dropout(p=0.0, inplace=False)
                )
              )
              (norm2): LayerNorm((1280,), eps=1e-05, elementwise_affine=True)
              (attn2): Module(
                (to_q): Linear(in_features=1280, out_features=1280, bias=False)
                (to_k): Linear(in_features=2048, out_features=1280, bias=False)
                (to_v): Linear(in_features=2048, out_features=1280, bias=False)
                (to_out): Module(
                  (0): Linear(in_features=1280, out_features=1280, bias=True)
                  (1): Dropout(p=0.0, inplace=False)
                )
              )
              (norm3): LayerNorm((1280,), eps=1e-05, elementwise_affine=True)
              (ff): Module(
                (net): Module(
                  (0): Module(
                    (proj): Linear(in_features=1280, out_features=10240, bias=True)
                  )
                  (1): Dropout(p=0.0, inplace=False)
                  (2): Linear(in_features=5120, out_features=1280, bias=True)
                )
              )
            )
            (1): Module(
              (norm1): LayerNorm((1280,), eps=1e-05, elementwise_affine=True)
              (attn1): Module(
                (to_q): Linear(in_features=1280, out_features=1280, bias=False)
                (to_k): Linear(in_features=1280, out_features=1280, bias=False)
                (to_v): Linear(in_features=1280, out_features=1280, bias=False)
                (to_out): Module(
                  (0): Linear(in_features=1280, out_features=1280, bias=True)
                  (1): Dropout(p=0.0, inplace=False)
                )
              )
              (norm2): LayerNorm((1280,), eps=1e-05, elementwise_affine=True)
              (attn2): Module(
                (to_q): Linear(in_features=1280, out_features=1280, bias=False)
                (to_k): Linear(in_features=2048, out_features=1280, bias=False)
                (to_v): Linear(in_features=2048, out_features=1280, bias=False)
                (to_out): Module(
                  (0): Linear(in_features=1280, out_features=1280, bias=True)
                  (1): Dropout(p=0.0, inplace=False)
                )
              )
              (norm3): LayerNorm((1280,), eps=1e-05, elementwise_affine=True)
              (ff): Module(
                (net): Module(
                  (0): Module(
                    (proj): Linear(in_features=1280, out_features=10240, bias=True)
                  )
                  (1): Dropout(p=0.0, inplace=False)
                  (2): Linear(in_features=5120, out_features=1280, bias=True)
                )
              )
            )
            (2): Module(
              (norm1): LayerNorm((1280,), eps=1e-05, elementwise_affine=True)
              (attn1): Module(
                (to_q): Linear(in_features=1280, out_features=1280, bias=False)
                (to_k): Linear(in_features=1280, out_features=1280, bias=False)
                (to_v): Linear(in_features=1280, out_features=1280, bias=False)
                (to_out): Module(
                  (0): Linear(in_features=1280, out_features=1280, bias=True)
                  (1): Dropout(p=0.0, inplace=False)
                )
              )
              (norm2): LayerNorm((1280,), eps=1e-05, elementwise_affine=True)
              (attn2): Module(
                (to_q): Linear(in_features=1280, out_features=1280, bias=False)
                (to_k): Linear(in_features=2048, out_features=1280, bias=False)
                (to_v): Linear(in_features=2048, out_features=1280, bias=False)
                (to_out): Module(
                  (0): Linear(in_features=1280, out_features=1280, bias=True)
                  (1): Dropout(p=0.0, inplace=False)
                )
              )
              (norm3): LayerNorm((1280,), eps=1e-05, elementwise_affine=True)
              (ff): Module(
                (net): Module(
                  (0): Module(
                    (proj): Linear(in_features=1280, out_features=10240, bias=True)
                  )
                  (1): Dropout(p=0.0, inplace=False)
                  (2): Linear(in_features=5120, out_features=1280, bias=True)
                )
              )
            )
            (3): Module(
              (norm1): LayerNorm((1280,), eps=1e-05, elementwise_affine=True)
              (attn1): Module(
                (to_q): Linear(in_features=1280, out_features=1280, bias=False)
                (to_k): Linear(in_features=1280, out_features=1280, bias=False)
                (to_v): Linear(in_features=1280, out_features=1280, bias=False)
                (to_out): Module(
                  (0): Linear(in_features=1280, out_features=1280, bias=True)
                  (1): Dropout(p=0.0, inplace=False)
                )
              )
              (norm2): LayerNorm((1280,), eps=1e-05, elementwise_affine=True)
              (attn2): Module(
                (to_q): Linear(in_features=1280, out_features=1280, bias=False)
                (to_k): Linear(in_features=2048, out_features=1280, bias=False)
                (to_v): Linear(in_features=2048, out_features=1280, bias=False)
                (to_out): Module(
                  (0): Linear(in_features=1280, out_features=1280, bias=True)
                  (1): Dropout(p=0.0, inplace=False)
                )
              )
              (norm3): LayerNorm((1280,), eps=1e-05, elementwise_affine=True)
              (ff): Module(
                (net): Module(
                  (0): Module(
                    (proj): Linear(in_features=1280, out_features=10240, bias=True)
                  )
                  (1): Dropout(p=0.0, inplace=False)
                  (2): Linear(in_features=5120, out_features=1280, bias=True)
                )
              )
            )
            (4): Module(
              (norm1): LayerNorm((1280,), eps=1e-05, elementwise_affine=True)
              (attn1): Module(
                (to_q): Linear(in_features=1280, out_features=1280, bias=False)
                (to_k): Linear(in_features=1280, out_features=1280, bias=False)
                (to_v): Linear(in_features=1280, out_features=1280, bias=False)
                (to_out): Module(
                  (0): Linear(in_features=1280, out_features=1280, bias=True)
                  (1): Dropout(p=0.0, inplace=False)
                )
              )
              (norm2): LayerNorm((1280,), eps=1e-05, elementwise_affine=True)
              (attn2): Module(
                (to_q): Linear(in_features=1280, out_features=1280, bias=False)
                (to_k): Linear(in_features=2048, out_features=1280, bias=False)
                (to_v): Linear(in_features=2048, out_features=1280, bias=False)
                (to_out): Module(
                  (0): Linear(in_features=1280, out_features=1280, bias=True)
                  (1): Dropout(p=0.0, inplace=False)
                )
              )
              (norm3): LayerNorm((1280,), eps=1e-05, elementwise_affine=True)
              (ff): Module(
                (net): Module(
                  (0): Module(
                    (proj): Linear(in_features=1280, out_features=10240, bias=True)
                  )
                  (1): Dropout(p=0.0, inplace=False)
                  (2): Linear(in_features=5120, out_features=1280, bias=True)
                )
              )
            )
            (5): Module(
              (norm1): LayerNorm((1280,), eps=1e-05, elementwise_affine=True)
              (attn1): Module(
                (to_q): Linear(in_features=1280, out_features=1280, bias=False)
                (to_k): Linear(in_features=1280, out_features=1280, bias=False)
                (to_v): Linear(in_features=1280, out_features=1280, bias=False)
                (to_out): Module(
                  (0): Linear(in_features=1280, out_features=1280, bias=True)
                  (1): Dropout(p=0.0, inplace=False)
                )
              )
              (norm2): LayerNorm((1280,), eps=1e-05, elementwise_affine=True)
              (attn2): Module(
                (to_q): Linear(in_features=1280, out_features=1280, bias=False)
                (to_k): Linear(in_features=2048, out_features=1280, bias=False)
                (to_v): Linear(in_features=2048, out_features=1280, bias=False)
                (to_out): Module(
                  (0): Linear(in_features=1280, out_features=1280, bias=True)
                  (1): Dropout(p=0.0, inplace=False)
                )
              )
              (norm3): LayerNorm((1280,), eps=1e-05, elementwise_affine=True)
              (ff): Module(
                (net): Module(
                  (0): Module(
                    (proj): Linear(in_features=1280, out_features=10240, bias=True)
                  )
                  (1): Dropout(p=0.0, inplace=False)
                  (2): Linear(in_features=5120, out_features=1280, bias=True)
                )
              )
            )
            (6): Module(
              (norm1): LayerNorm((1280,), eps=1e-05, elementwise_affine=True)
              (attn1): Module(
                (to_q): Linear(in_features=1280, out_features=1280, bias=False)
                (to_k): Linear(in_features=1280, out_features=1280, bias=False)
                (to_v): Linear(in_features=1280, out_features=1280, bias=False)
                (to_out): Module(
                  (0): Linear(in_features=1280, out_features=1280, bias=True)
                  (1): Dropout(p=0.0, inplace=False)
                )
              )
              (norm2): LayerNorm((1280,), eps=1e-05, elementwise_affine=True)
              (attn2): Module(
                (to_q): Linear(in_features=1280, out_features=1280, bias=False)
                (to_k): Linear(in_features=2048, out_features=1280, bias=False)
                (to_v): Linear(in_features=2048, out_features=1280, bias=False)
                (to_out): Module(
                  (0): Linear(in_features=1280, out_features=1280, bias=True)
                  (1): Dropout(p=0.0, inplace=False)
                )
              )
              (norm3): LayerNorm((1280,), eps=1e-05, elementwise_affine=True)
              (ff): Module(
                (net): Module(
                  (0): Module(
                    (proj): Linear(in_features=1280, out_features=10240, bias=True)
                  )
                  (1): Dropout(p=0.0, inplace=False)
                  (2): Linear(in_features=5120, out_features=1280, bias=True)
                )
              )
            )
            (7): Module(
              (norm1): LayerNorm((1280,), eps=1e-05, elementwise_affine=True)
              (attn1): Module(
                (to_q): Linear(in_features=1280, out_features=1280, bias=False)
                (to_k): Linear(in_features=1280, out_features=1280, bias=False)
                (to_v): Linear(in_features=1280, out_features=1280, bias=False)
                (to_out): Module(
                  (0): Linear(in_features=1280, out_features=1280, bias=True)
                  (1): Dropout(p=0.0, inplace=False)
                )
              )
              (norm2): LayerNorm((1280,), eps=1e-05, elementwise_affine=True)
              (attn2): Module(
                (to_q): Linear(in_features=1280, out_features=1280, bias=False)
                (to_k): Linear(in_features=2048, out_features=1280, bias=False)
                (to_v): Linear(in_features=2048, out_features=1280, bias=False)
                (to_out): Module(
                  (0): Linear(in_features=1280, out_features=1280, bias=True)
                  (1): Dropout(p=0.0, inplace=False)
                )
              )
              (norm3): LayerNorm((1280,), eps=1e-05, elementwise_affine=True)
              (ff): Module(
                (net): Module(
                  (0): Module(
                    (proj): Linear(in_features=1280, out_features=10240, bias=True)
                  )
                  (1): Dropout(p=0.0, inplace=False)
                  (2): Linear(in_features=5120, out_features=1280, bias=True)
                )
              )
            )
            (8): Module(
              (norm1): LayerNorm((1280,), eps=1e-05, elementwise_affine=True)
              (attn1): Module(
                (to_q): Linear(in_features=1280, out_features=1280, bias=False)
                (to_k): Linear(in_features=1280, out_features=1280, bias=False)
                (to_v): Linear(in_features=1280, out_features=1280, bias=False)
                (to_out): Module(
                  (0): Linear(in_features=1280, out_features=1280, bias=True)
                  (1): Dropout(p=0.0, inplace=False)
                )
              )
              (norm2): LayerNorm((1280,), eps=1e-05, elementwise_affine=True)
              (attn2): Module(
                (to_q): Linear(in_features=1280, out_features=1280, bias=False)
                (to_k): Linear(in_features=2048, out_features=1280, bias=False)
                (to_v): Linear(in_features=2048, out_features=1280, bias=False)
                (to_out): Module(
                  (0): Linear(in_features=1280, out_features=1280, bias=True)
                  (1): Dropout(p=0.0, inplace=False)
                )
              )
              (norm3): LayerNorm((1280,), eps=1e-05, elementwise_affine=True)
              (ff): Module(
                (net): Module(
                  (0): Module(
                    (proj): Linear(in_features=1280, out_features=10240, bias=True)
                  )
                  (1): Dropout(p=0.0, inplace=False)
                  (2): Linear(in_features=5120, out_features=1280, bias=True)
                )
              )
            )
            (9): Module(
              (norm1): LayerNorm((1280,), eps=1e-05, elementwise_affine=True)
              (attn1): Module(
                (to_q): Linear(in_features=1280, out_features=1280, bias=False)
                (to_k): Linear(in_features=1280, out_features=1280, bias=False)
                (to_v): Linear(in_features=1280, out_features=1280, bias=False)
                (to_out): Module(
                  (0): Linear(in_features=1280, out_features=1280, bias=True)
                  (1): Dropout(p=0.0, inplace=False)
                )
              )
              (norm2): LayerNorm((1280,), eps=1e-05, elementwise_affine=True)
              (attn2): Module(
                (to_q): Linear(in_features=1280, out_features=1280, bias=False)
                (to_k): Linear(in_features=2048, out_features=1280, bias=False)
                (to_v): Linear(in_features=2048, out_features=1280, bias=False)
                (to_out): Module(
                  (0): Linear(in_features=1280, out_features=1280, bias=True)
                  (1): Dropout(p=0.0, inplace=False)
                )
              )
              (norm3): LayerNorm((1280,), eps=1e-05, elementwise_affine=True)
              (ff): Module(
                (net): Module(
                  (0): Module(
                    (proj): Linear(in_features=1280, out_features=10240, bias=True)
                  )
                  (1): Dropout(p=0.0, inplace=False)
                  (2): Linear(in_features=5120, out_features=1280, bias=True)
                )
              )
            )
          )
          (proj_out): Linear(in_features=1280, out_features=1280, bias=True)
        )
        (1): Module(
          (norm): GroupNorm(32, 1280, eps=1e-06, affine=True)
          (proj_in): Linear(in_features=1280, out_features=1280, bias=True)
          (transformer_blocks): Module(
            (0): Module(
              (norm1): LayerNorm((1280,), eps=1e-05, elementwise_affine=True)
              (attn1): Module(
                (to_q): Linear(in_features=1280, out_features=1280, bias=False)
                (to_k): Linear(in_features=1280, out_features=1280, bias=False)
                (to_v): Linear(in_features=1280, out_features=1280, bias=False)
                (to_out): Module(
                  (0): Linear(in_features=1280, out_features=1280, bias=True)
                  (1): Dropout(p=0.0, inplace=False)
                )
              )
              (norm2): LayerNorm((1280,), eps=1e-05, elementwise_affine=True)
              (attn2): Module(
                (to_q): Linear(in_features=1280, out_features=1280, bias=False)
                (to_k): Linear(in_features=2048, out_features=1280, bias=False)
                (to_v): Linear(in_features=2048, out_features=1280, bias=False)
                (to_out): Module(
                  (0): Linear(in_features=1280, out_features=1280, bias=True)
                  (1): Dropout(p=0.0, inplace=False)
                )
              )
              (norm3): LayerNorm((1280,), eps=1e-05, elementwise_affine=True)
              (ff): Module(
                (net): Module(
                  (0): Module(
                    (proj): Linear(in_features=1280, out_features=10240, bias=True)
                  )
                  (1): Dropout(p=0.0, inplace=False)
                  (2): Linear(in_features=5120, out_features=1280, bias=True)
                )
              )
            )
            (1): Module(
              (norm1): LayerNorm((1280,), eps=1e-05, elementwise_affine=True)
              (attn1): Module(
                (to_q): Linear(in_features=1280, out_features=1280, bias=False)
                (to_k): Linear(in_features=1280, out_features=1280, bias=False)
                (to_v): Linear(in_features=1280, out_features=1280, bias=False)
                (to_out): Module(
                  (0): Linear(in_features=1280, out_features=1280, bias=True)
                  (1): Dropout(p=0.0, inplace=False)
                )
              )
              (norm2): LayerNorm((1280,), eps=1e-05, elementwise_affine=True)
              (attn2): Module(
                (to_q): Linear(in_features=1280, out_features=1280, bias=False)
                (to_k): Linear(in_features=2048, out_features=1280, bias=False)
                (to_v): Linear(in_features=2048, out_features=1280, bias=False)
                (to_out): Module(
                  (0): Linear(in_features=1280, out_features=1280, bias=True)
                  (1): Dropout(p=0.0, inplace=False)
                )
              )
              (norm3): LayerNorm((1280,), eps=1e-05, elementwise_affine=True)
              (ff): Module(
                (net): Module(
                  (0): Module(
                    (proj): Linear(in_features=1280, out_features=10240, bias=True)
                  )
                  (1): Dropout(p=0.0, inplace=False)
                  (2): Linear(in_features=5120, out_features=1280, bias=True)
                )
              )
            )
            (2): Module(
              (norm1): LayerNorm((1280,), eps=1e-05, elementwise_affine=True)
              (attn1): Module(
                (to_q): Linear(in_features=1280, out_features=1280, bias=False)
                (to_k): Linear(in_features=1280, out_features=1280, bias=False)
                (to_v): Linear(in_features=1280, out_features=1280, bias=False)
                (to_out): Module(
                  (0): Linear(in_features=1280, out_features=1280, bias=True)
                  (1): Dropout(p=0.0, inplace=False)
                )
              )
              (norm2): LayerNorm((1280,), eps=1e-05, elementwise_affine=True)
              (attn2): Module(
                (to_q): Linear(in_features=1280, out_features=1280, bias=False)
                (to_k): Linear(in_features=2048, out_features=1280, bias=False)
                (to_v): Linear(in_features=2048, out_features=1280, bias=False)
                (to_out): Module(
                  (0): Linear(in_features=1280, out_features=1280, bias=True)
                  (1): Dropout(p=0.0, inplace=False)
                )
              )
              (norm3): LayerNorm((1280,), eps=1e-05, elementwise_affine=True)
              (ff): Module(
                (net): Module(
                  (0): Module(
                    (proj): Linear(in_features=1280, out_features=10240, bias=True)
                  )
                  (1): Dropout(p=0.0, inplace=False)
                  (2): Linear(in_features=5120, out_features=1280, bias=True)
                )
              )
            )
            (3): Module(
              (norm1): LayerNorm((1280,), eps=1e-05, elementwise_affine=True)
              (attn1): Module(
                (to_q): Linear(in_features=1280, out_features=1280, bias=False)
                (to_k): Linear(in_features=1280, out_features=1280, bias=False)
                (to_v): Linear(in_features=1280, out_features=1280, bias=False)
                (to_out): Module(
                  (0): Linear(in_features=1280, out_features=1280, bias=True)
                  (1): Dropout(p=0.0, inplace=False)
                )
              )
              (norm2): LayerNorm((1280,), eps=1e-05, elementwise_affine=True)
              (attn2): Module(
                (to_q): Linear(in_features=1280, out_features=1280, bias=False)
                (to_k): Linear(in_features=2048, out_features=1280, bias=False)
                (to_v): Linear(in_features=2048, out_features=1280, bias=False)
                (to_out): Module(
                  (0): Linear(in_features=1280, out_features=1280, bias=True)
                  (1): Dropout(p=0.0, inplace=False)
                )
              )
              (norm3): LayerNorm((1280,), eps=1e-05, elementwise_affine=True)
              (ff): Module(
                (net): Module(
                  (0): Module(
                    (proj): Linear(in_features=1280, out_features=10240, bias=True)
                  )
                  (1): Dropout(p=0.0, inplace=False)
                  (2): Linear(in_features=5120, out_features=1280, bias=True)
                )
              )
            )
            (4): Module(
              (norm1): LayerNorm((1280,), eps=1e-05, elementwise_affine=True)
              (attn1): Module(
                (to_q): Linear(in_features=1280, out_features=1280, bias=False)
                (to_k): Linear(in_features=1280, out_features=1280, bias=False)
                (to_v): Linear(in_features=1280, out_features=1280, bias=False)
                (to_out): Module(
                  (0): Linear(in_features=1280, out_features=1280, bias=True)
                  (1): Dropout(p=0.0, inplace=False)
                )
              )
              (norm2): LayerNorm((1280,), eps=1e-05, elementwise_affine=True)
              (attn2): Module(
                (to_q): Linear(in_features=1280, out_features=1280, bias=False)
                (to_k): Linear(in_features=2048, out_features=1280, bias=False)
                (to_v): Linear(in_features=2048, out_features=1280, bias=False)
                (to_out): Module(
                  (0): Linear(in_features=1280, out_features=1280, bias=True)
                  (1): Dropout(p=0.0, inplace=False)
                )
              )
              (norm3): LayerNorm((1280,), eps=1e-05, elementwise_affine=True)
              (ff): Module(
                (net): Module(
                  (0): Module(
                    (proj): Linear(in_features=1280, out_features=10240, bias=True)
                  )
                  (1): Dropout(p=0.0, inplace=False)
                  (2): Linear(in_features=5120, out_features=1280, bias=True)
                )
              )
            )
            (5): Module(
              (norm1): LayerNorm((1280,), eps=1e-05, elementwise_affine=True)
              (attn1): Module(
                (to_q): Linear(in_features=1280, out_features=1280, bias=False)
                (to_k): Linear(in_features=1280, out_features=1280, bias=False)
                (to_v): Linear(in_features=1280, out_features=1280, bias=False)
                (to_out): Module(
                  (0): Linear(in_features=1280, out_features=1280, bias=True)
                  (1): Dropout(p=0.0, inplace=False)
                )
              )
              (norm2): LayerNorm((1280,), eps=1e-05, elementwise_affine=True)
              (attn2): Module(
                (to_q): Linear(in_features=1280, out_features=1280, bias=False)
                (to_k): Linear(in_features=2048, out_features=1280, bias=False)
                (to_v): Linear(in_features=2048, out_features=1280, bias=False)
                (to_out): Module(
                  (0): Linear(in_features=1280, out_features=1280, bias=True)
                  (1): Dropout(p=0.0, inplace=False)
                )
              )
              (norm3): LayerNorm((1280,), eps=1e-05, elementwise_affine=True)
              (ff): Module(
                (net): Module(
                  (0): Module(
                    (proj): Linear(in_features=1280, out_features=10240, bias=True)
                  )
                  (1): Dropout(p=0.0, inplace=False)
                  (2): Linear(in_features=5120, out_features=1280, bias=True)
                )
              )
            )
            (6): Module(
              (norm1): LayerNorm((1280,), eps=1e-05, elementwise_affine=True)
              (attn1): Module(
                (to_q): Linear(in_features=1280, out_features=1280, bias=False)
                (to_k): Linear(in_features=1280, out_features=1280, bias=False)
                (to_v): Linear(in_features=1280, out_features=1280, bias=False)
                (to_out): Module(
                  (0): Linear(in_features=1280, out_features=1280, bias=True)
                  (1): Dropout(p=0.0, inplace=False)
                )
              )
              (norm2): LayerNorm((1280,), eps=1e-05, elementwise_affine=True)
              (attn2): Module(
                (to_q): Linear(in_features=1280, out_features=1280, bias=False)
                (to_k): Linear(in_features=2048, out_features=1280, bias=False)
                (to_v): Linear(in_features=2048, out_features=1280, bias=False)
                (to_out): Module(
                  (0): Linear(in_features=1280, out_features=1280, bias=True)
                  (1): Dropout(p=0.0, inplace=False)
                )
              )
              (norm3): LayerNorm((1280,), eps=1e-05, elementwise_affine=True)
              (ff): Module(
                (net): Module(
                  (0): Module(
                    (proj): Linear(in_features=1280, out_features=10240, bias=True)
                  )
                  (1): Dropout(p=0.0, inplace=False)
                  (2): Linear(in_features=5120, out_features=1280, bias=True)
                )
              )
            )
            (7): Module(
              (norm1): LayerNorm((1280,), eps=1e-05, elementwise_affine=True)
              (attn1): Module(
                (to_q): Linear(in_features=1280, out_features=1280, bias=False)
                (to_k): Linear(in_features=1280, out_features=1280, bias=False)
                (to_v): Linear(in_features=1280, out_features=1280, bias=False)
                (to_out): Module(
                  (0): Linear(in_features=1280, out_features=1280, bias=True)
                  (1): Dropout(p=0.0, inplace=False)
                )
              )
              (norm2): LayerNorm((1280,), eps=1e-05, elementwise_affine=True)
              (attn2): Module(
                (to_q): Linear(in_features=1280, out_features=1280, bias=False)
                (to_k): Linear(in_features=2048, out_features=1280, bias=False)
                (to_v): Linear(in_features=2048, out_features=1280, bias=False)
                (to_out): Module(
                  (0): Linear(in_features=1280, out_features=1280, bias=True)
                  (1): Dropout(p=0.0, inplace=False)
                )
              )
              (norm3): LayerNorm((1280,), eps=1e-05, elementwise_affine=True)
              (ff): Module(
                (net): Module(
                  (0): Module(
                    (proj): Linear(in_features=1280, out_features=10240, bias=True)
                  )
                  (1): Dropout(p=0.0, inplace=False)
                  (2): Linear(in_features=5120, out_features=1280, bias=True)
                )
              )
            )
            (8): Module(
              (norm1): LayerNorm((1280,), eps=1e-05, elementwise_affine=True)
              (attn1): Module(
                (to_q): Linear(in_features=1280, out_features=1280, bias=False)
                (to_k): Linear(in_features=1280, out_features=1280, bias=False)
                (to_v): Linear(in_features=1280, out_features=1280, bias=False)
                (to_out): Module(
                  (0): Linear(in_features=1280, out_features=1280, bias=True)
                  (1): Dropout(p=0.0, inplace=False)
                )
              )
              (norm2): LayerNorm((1280,), eps=1e-05, elementwise_affine=True)
              (attn2): Module(
                (to_q): Linear(in_features=1280, out_features=1280, bias=False)
                (to_k): Linear(in_features=2048, out_features=1280, bias=False)
                (to_v): Linear(in_features=2048, out_features=1280, bias=False)
                (to_out): Module(
                  (0): Linear(in_features=1280, out_features=1280, bias=True)
                  (1): Dropout(p=0.0, inplace=False)
                )
              )
              (norm3): LayerNorm((1280,), eps=1e-05, elementwise_affine=True)
              (ff): Module(
                (net): Module(
                  (0): Module(
                    (proj): Linear(in_features=1280, out_features=10240, bias=True)
                  )
                  (1): Dropout(p=0.0, inplace=False)
                  (2): Linear(in_features=5120, out_features=1280, bias=True)
                )
              )
            )
            (9): Module(
              (norm1): LayerNorm((1280,), eps=1e-05, elementwise_affine=True)
              (attn1): Module(
                (to_q): Linear(in_features=1280, out_features=1280, bias=False)
                (to_k): Linear(in_features=1280, out_features=1280, bias=False)
                (to_v): Linear(in_features=1280, out_features=1280, bias=False)
                (to_out): Module(
                  (0): Linear(in_features=1280, out_features=1280, bias=True)
                  (1): Dropout(p=0.0, inplace=False)
                )
              )
              (norm2): LayerNorm((1280,), eps=1e-05, elementwise_affine=True)
              (attn2): Module(
                (to_q): Linear(in_features=1280, out_features=1280, bias=False)
                (to_k): Linear(in_features=2048, out_features=1280, bias=False)
                (to_v): Linear(in_features=2048, out_features=1280, bias=False)
                (to_out): Module(
                  (0): Linear(in_features=1280, out_features=1280, bias=True)
                  (1): Dropout(p=0.0, inplace=False)
                )
              )
              (norm3): LayerNorm((1280,), eps=1e-05, elementwise_affine=True)
              (ff): Module(
                (net): Module(
                  (0): Module(
                    (proj): Linear(in_features=1280, out_features=10240, bias=True)
                  )
                  (1): Dropout(p=0.0, inplace=False)
                  (2): Linear(in_features=5120, out_features=1280, bias=True)
                )
              )
            )
          )
          (proj_out): Linear(in_features=1280, out_features=1280, bias=True)
        )
      )
    )
  )
  (mid_block): Module(
    (resnets): Module(
      (0): Module(
        (norm1): GroupNorm(32, 1280, eps=1e-05, affine=True)
        (nonlinearity): SiLU()
        (conv1): Conv2d(1280, 1280, kernel_size=(3, 3), stride=(1, 1), padding=(1, 1))
        (time_emb_proj): Linear(in_features=1280, out_features=1280, bias=True)
        (norm2): GroupNorm(32, 1280, eps=1e-05, affine=True)
        (dropout): Dropout(p=0.0, inplace=False)
        (conv2): Conv2d(1280, 1280, kernel_size=(3, 3), stride=(1, 1), padding=(1, 1))
      )
      (1): Module(
        (norm1): GroupNorm(32, 1280, eps=1e-05, affine=True)
        (nonlinearity): SiLU()
        (conv1): Conv2d(1280, 1280, kernel_size=(3, 3), stride=(1, 1), padding=(1, 1))
        (time_emb_proj): Linear(in_features=1280, out_features=1280, bias=True)
        (norm2): GroupNorm(32, 1280, eps=1e-05, affine=True)
        (dropout): Dropout(p=0.0, inplace=False)
        (conv2): Conv2d(1280, 1280, kernel_size=(3, 3), stride=(1, 1), padding=(1, 1))
      )
    )
    (attentions): Module(
      (0): Module(
        (norm): GroupNorm(32, 1280, eps=1e-06, affine=True)
        (proj_in): Linear(in_features=1280, out_features=1280, bias=True)
        (transformer_blocks): Module(
          (0): Module(
            (norm1): LayerNorm((1280,), eps=1e-05, elementwise_affine=True)
            (attn1): Module(
              (to_q): Linear(in_features=1280, out_features=1280, bias=False)
              (to_k): Linear(in_features=1280, out_features=1280, bias=False)
              (to_v): Linear(in_features=1280, out_features=1280, bias=False)
              (to_out): Module(
                (0): Linear(in_features=1280, out_features=1280, bias=True)
                (1): Dropout(p=0.0, inplace=False)
              )
            )
            (norm2): LayerNorm((1280,), eps=1e-05, elementwise_affine=True)
            (attn2): Module(
              (to_q): Linear(in_features=1280, out_features=1280, bias=False)
              (to_k): Linear(in_features=2048, out_features=1280, bias=False)
              (to_v): Linear(in_features=2048, out_features=1280, bias=False)
              (to_out): Module(
                (0): Linear(in_features=1280, out_features=1280, bias=True)
                (1): Dropout(p=0.0, inplace=False)
              )
            )
            (norm3): LayerNorm((1280,), eps=1e-05, elementwise_affine=True)
            (ff): Module(
              (net): Module(
                (0): Module(
                  (proj): Linear(in_features=1280, out_features=10240, bias=True)
                )
                (1): Dropout(p=0.0, inplace=False)
                (2): Linear(in_features=5120, out_features=1280, bias=True)
              )
            )
          )
          (1): Module(
            (norm1): LayerNorm((1280,), eps=1e-05, elementwise_affine=True)
            (attn1): Module(
              (to_q): Linear(in_features=1280, out_features=1280, bias=False)
              (to_k): Linear(in_features=1280, out_features=1280, bias=False)
              (to_v): Linear(in_features=1280, out_features=1280, bias=False)
              (to_out): Module(
                (0): Linear(in_features=1280, out_features=1280, bias=True)
                (1): Dropout(p=0.0, inplace=False)
              )
            )
            (norm2): LayerNorm((1280,), eps=1e-05, elementwise_affine=True)
            (attn2): Module(
              (to_q): Linear(in_features=1280, out_features=1280, bias=False)
              (to_k): Linear(in_features=2048, out_features=1280, bias=False)
              (to_v): Linear(in_features=2048, out_features=1280, bias=False)
              (to_out): Module(
                (0): Linear(in_features=1280, out_features=1280, bias=True)
                (1): Dropout(p=0.0, inplace=False)
              )
            )
            (norm3): LayerNorm((1280,), eps=1e-05, elementwise_affine=True)
            (ff): Module(
              (net): Module(
                (0): Module(
                  (proj): Linear(in_features=1280, out_features=10240, bias=True)
                )
                (1): Dropout(p=0.0, inplace=False)
                (2): Linear(in_features=5120, out_features=1280, bias=True)
              )
            )
          )
          (2): Module(
            (norm1): LayerNorm((1280,), eps=1e-05, elementwise_affine=True)
            (attn1): Module(
              (to_q): Linear(in_features=1280, out_features=1280, bias=False)
              (to_k): Linear(in_features=1280, out_features=1280, bias=False)
              (to_v): Linear(in_features=1280, out_features=1280, bias=False)
              (to_out): Module(
                (0): Linear(in_features=1280, out_features=1280, bias=True)
                (1): Dropout(p=0.0, inplace=False)
              )
            )
            (norm2): LayerNorm((1280,), eps=1e-05, elementwise_affine=True)
            (attn2): Module(
              (to_q): Linear(in_features=1280, out_features=1280, bias=False)
              (to_k): Linear(in_features=2048, out_features=1280, bias=False)
              (to_v): Linear(in_features=2048, out_features=1280, bias=False)
              (to_out): Module(
                (0): Linear(in_features=1280, out_features=1280, bias=True)
                (1): Dropout(p=0.0, inplace=False)
              )
            )
            (norm3): LayerNorm((1280,), eps=1e-05, elementwise_affine=True)
            (ff): Module(
              (net): Module(
                (0): Module(
                  (proj): Linear(in_features=1280, out_features=10240, bias=True)
                )
                (1): Dropout(p=0.0, inplace=False)
                (2): Linear(in_features=5120, out_features=1280, bias=True)
              )
            )
          )
          (3): Module(
            (norm1): LayerNorm((1280,), eps=1e-05, elementwise_affine=True)
            (attn1): Module(
              (to_q): Linear(in_features=1280, out_features=1280, bias=False)
              (to_k): Linear(in_features=1280, out_features=1280, bias=False)
              (to_v): Linear(in_features=1280, out_features=1280, bias=False)
              (to_out): Module(
                (0): Linear(in_features=1280, out_features=1280, bias=True)
                (1): Dropout(p=0.0, inplace=False)
              )
            )
            (norm2): LayerNorm((1280,), eps=1e-05, elementwise_affine=True)
            (attn2): Module(
              (to_q): Linear(in_features=1280, out_features=1280, bias=False)
              (to_k): Linear(in_features=2048, out_features=1280, bias=False)
              (to_v): Linear(in_features=2048, out_features=1280, bias=False)
              (to_out): Module(
                (0): Linear(in_features=1280, out_features=1280, bias=True)
                (1): Dropout(p=0.0, inplace=False)
              )
            )
            (norm3): LayerNorm((1280,), eps=1e-05, elementwise_affine=True)
            (ff): Module(
              (net): Module(
                (0): Module(
                  (proj): Linear(in_features=1280, out_features=10240, bias=True)
                )
                (1): Dropout(p=0.0, inplace=False)
                (2): Linear(in_features=5120, out_features=1280, bias=True)
              )
            )
          )
          (4): Module(
            (norm1): LayerNorm((1280,), eps=1e-05, elementwise_affine=True)
            (attn1): Module(
              (to_q): Linear(in_features=1280, out_features=1280, bias=False)
              (to_k): Linear(in_features=1280, out_features=1280, bias=False)
              (to_v): Linear(in_features=1280, out_features=1280, bias=False)
              (to_out): Module(
                (0): Linear(in_features=1280, out_features=1280, bias=True)
                (1): Dropout(p=0.0, inplace=False)
              )
            )
            (norm2): LayerNorm((1280,), eps=1e-05, elementwise_affine=True)
            (attn2): Module(
              (to_q): Linear(in_features=1280, out_features=1280, bias=False)
              (to_k): Linear(in_features=2048, out_features=1280, bias=False)
              (to_v): Linear(in_features=2048, out_features=1280, bias=False)
              (to_out): Module(
                (0): Linear(in_features=1280, out_features=1280, bias=True)
                (1): Dropout(p=0.0, inplace=False)
              )
            )
            (norm3): LayerNorm((1280,), eps=1e-05, elementwise_affine=True)
            (ff): Module(
              (net): Module(
                (0): Module(
                  (proj): Linear(in_features=1280, out_features=10240, bias=True)
                )
                (1): Dropout(p=0.0, inplace=False)
                (2): Linear(in_features=5120, out_features=1280, bias=True)
              )
            )
          )
          (5): Module(
            (norm1): LayerNorm((1280,), eps=1e-05, elementwise_affine=True)
            (attn1): Module(
              (to_q): Linear(in_features=1280, out_features=1280, bias=False)
              (to_k): Linear(in_features=1280, out_features=1280, bias=False)
              (to_v): Linear(in_features=1280, out_features=1280, bias=False)
              (to_out): Module(
                (0): Linear(in_features=1280, out_features=1280, bias=True)
                (1): Dropout(p=0.0, inplace=False)
              )
            )
            (norm2): LayerNorm((1280,), eps=1e-05, elementwise_affine=True)
            (attn2): Module(
              (to_q): Linear(in_features=1280, out_features=1280, bias=False)
              (to_k): Linear(in_features=2048, out_features=1280, bias=False)
              (to_v): Linear(in_features=2048, out_features=1280, bias=False)
              (to_out): Module(
                (0): Linear(in_features=1280, out_features=1280, bias=True)
                (1): Dropout(p=0.0, inplace=False)
              )
            )
            (norm3): LayerNorm((1280,), eps=1e-05, elementwise_affine=True)
            (ff): Module(
              (net): Module(
                (0): Module(
                  (proj): Linear(in_features=1280, out_features=10240, bias=True)
                )
                (1): Dropout(p=0.0, inplace=False)
                (2): Linear(in_features=5120, out_features=1280, bias=True)
              )
            )
          )
          (6): Module(
            (norm1): LayerNorm((1280,), eps=1e-05, elementwise_affine=True)
            (attn1): Module(
              (to_q): Linear(in_features=1280, out_features=1280, bias=False)
              (to_k): Linear(in_features=1280, out_features=1280, bias=False)
              (to_v): Linear(in_features=1280, out_features=1280, bias=False)
              (to_out): Module(
                (0): Linear(in_features=1280, out_features=1280, bias=True)
                (1): Dropout(p=0.0, inplace=False)
              )
            )
            (norm2): LayerNorm((1280,), eps=1e-05, elementwise_affine=True)
            (attn2): Module(
              (to_q): Linear(in_features=1280, out_features=1280, bias=False)
              (to_k): Linear(in_features=2048, out_features=1280, bias=False)
              (to_v): Linear(in_features=2048, out_features=1280, bias=False)
              (to_out): Module(
                (0): Linear(in_features=1280, out_features=1280, bias=True)
                (1): Dropout(p=0.0, inplace=False)
              )
            )
            (norm3): LayerNorm((1280,), eps=1e-05, elementwise_affine=True)
            (ff): Module(
              (net): Module(
                (0): Module(
                  (proj): Linear(in_features=1280, out_features=10240, bias=True)
                )
                (1): Dropout(p=0.0, inplace=False)
                (2): Linear(in_features=5120, out_features=1280, bias=True)
              )
            )
          )
          (7): Module(
            (norm1): LayerNorm((1280,), eps=1e-05, elementwise_affine=True)
            (attn1): Module(
              (to_q): Linear(in_features=1280, out_features=1280, bias=False)
              (to_k): Linear(in_features=1280, out_features=1280, bias=False)
              (to_v): Linear(in_features=1280, out_features=1280, bias=False)
              (to_out): Module(
                (0): Linear(in_features=1280, out_features=1280, bias=True)
                (1): Dropout(p=0.0, inplace=False)
              )
            )
            (norm2): LayerNorm((1280,), eps=1e-05, elementwise_affine=True)
            (attn2): Module(
              (to_q): Linear(in_features=1280, out_features=1280, bias=False)
              (to_k): Linear(in_features=2048, out_features=1280, bias=False)
              (to_v): Linear(in_features=2048, out_features=1280, bias=False)
              (to_out): Module(
                (0): Linear(in_features=1280, out_features=1280, bias=True)
                (1): Dropout(p=0.0, inplace=False)
              )
            )
            (norm3): LayerNorm((1280,), eps=1e-05, elementwise_affine=True)
            (ff): Module(
              (net): Module(
                (0): Module(
                  (proj): Linear(in_features=1280, out_features=10240, bias=True)
                )
                (1): Dropout(p=0.0, inplace=False)
                (2): Linear(in_features=5120, out_features=1280, bias=True)
              )
            )
          )
          (8): Module(
            (norm1): LayerNorm((1280,), eps=1e-05, elementwise_affine=True)
            (attn1): Module(
              (to_q): Linear(in_features=1280, out_features=1280, bias=False)
              (to_k): Linear(in_features=1280, out_features=1280, bias=False)
              (to_v): Linear(in_features=1280, out_features=1280, bias=False)
              (to_out): Module(
                (0): Linear(in_features=1280, out_features=1280, bias=True)
                (1): Dropout(p=0.0, inplace=False)
              )
            )
            (norm2): LayerNorm((1280,), eps=1e-05, elementwise_affine=True)
            (attn2): Module(
              (to_q): Linear(in_features=1280, out_features=1280, bias=False)
              (to_k): Linear(in_features=2048, out_features=1280, bias=False)
              (to_v): Linear(in_features=2048, out_features=1280, bias=False)
              (to_out): Module(
                (0): Linear(in_features=1280, out_features=1280, bias=True)
                (1): Dropout(p=0.0, inplace=False)
              )
            )
            (norm3): LayerNorm((1280,), eps=1e-05, elementwise_affine=True)
            (ff): Module(
              (net): Module(
                (0): Module(
                  (proj): Linear(in_features=1280, out_features=10240, bias=True)
                )
                (1): Dropout(p=0.0, inplace=False)
                (2): Linear(in_features=5120, out_features=1280, bias=True)
              )
            )
          )
          (9): Module(
            (norm1): LayerNorm((1280,), eps=1e-05, elementwise_affine=True)
            (attn1): Module(
              (to_q): Linear(in_features=1280, out_features=1280, bias=False)
              (to_k): Linear(in_features=1280, out_features=1280, bias=False)
              (to_v): Linear(in_features=1280, out_features=1280, bias=False)
              (to_out): Module(
                (0): Linear(in_features=1280, out_features=1280, bias=True)
                (1): Dropout(p=0.0, inplace=False)
              )
            )
            (norm2): LayerNorm((1280,), eps=1e-05, elementwise_affine=True)
            (attn2): Module(
              (to_q): Linear(in_features=1280, out_features=1280, bias=False)
              (to_k): Linear(in_features=2048, out_features=1280, bias=False)
              (to_v): Linear(in_features=2048, out_features=1280, bias=False)
              (to_out): Module(
                (0): Linear(in_features=1280, out_features=1280, bias=True)
                (1): Dropout(p=0.0, inplace=False)
              )
            )
            (norm3): LayerNorm((1280,), eps=1e-05, elementwise_affine=True)
            (ff): Module(
              (net): Module(
                (0): Module(
                  (proj): Linear(in_features=1280, out_features=10240, bias=True)
                )
                (1): Dropout(p=0.0, inplace=False)
                (2): Linear(in_features=5120, out_features=1280, bias=True)
              )
            )
          )
        )
        (proj_out): Linear(in_features=1280, out_features=1280, bias=True)
      )
    )
  )
  (up_blocks): Module(
    (0): Module(
      (resnets): Module(
        (0): Module(
          (norm1): GroupNorm(32, 2560, eps=1e-05, affine=True)
          (nonlinearity): SiLU()
          (conv1): Conv2d(2560, 1280, kernel_size=(3, 3), stride=(1, 1), padding=(1, 1))
          (time_emb_proj): Linear(in_features=1280, out_features=1280, bias=True)
          (norm2): GroupNorm(32, 1280, eps=1e-05, affine=True)
          (dropout): Dropout(p=0.0, inplace=False)
          (conv2): Conv2d(1280, 1280, kernel_size=(3, 3), stride=(1, 1), padding=(1, 1))
          (conv_shortcut): Conv2d(2560, 1280, kernel_size=(1, 1), stride=(1, 1))
        )
        (1): Module(
          (norm1): GroupNorm(32, 2560, eps=1e-05, affine=True)
          (nonlinearity): SiLU()
          (conv1): Conv2d(2560, 1280, kernel_size=(3, 3), stride=(1, 1), padding=(1, 1))
          (time_emb_proj): Linear(in_features=1280, out_features=1280, bias=True)
          (norm2): GroupNorm(32, 1280, eps=1e-05, affine=True)
          (dropout): Dropout(p=0.0, inplace=False)
          (conv2): Conv2d(1280, 1280, kernel_size=(3, 3), stride=(1, 1), padding=(1, 1))
          (conv_shortcut): Conv2d(2560, 1280, kernel_size=(1, 1), stride=(1, 1))
        )
        (2): Module(
          (norm1): GroupNorm(32, 1920, eps=1e-05, affine=True)
          (nonlinearity): SiLU()
          (conv1): Conv2d(1920, 1280, kernel_size=(3, 3), stride=(1, 1), padding=(1, 1))
          (time_emb_proj): Linear(in_features=1280, out_features=1280, bias=True)
          (norm2): GroupNorm(32, 1280, eps=1e-05, affine=True)
          (dropout): Dropout(p=0.0, inplace=False)
          (conv2): Conv2d(1280, 1280, kernel_size=(3, 3), stride=(1, 1), padding=(1, 1))
          (conv_shortcut): Conv2d(1920, 1280, kernel_size=(1, 1), stride=(1, 1))
        )
      )
      (attentions): Module(
        (0): Module(
          (norm): GroupNorm(32, 1280, eps=1e-06, affine=True)
          (proj_in): Linear(in_features=1280, out_features=1280, bias=True)
          (transformer_blocks): Module(
            (0): Module(
              (norm1): LayerNorm((1280,), eps=1e-05, elementwise_affine=True)
              (attn1): Module(
                (to_q): Linear(in_features=1280, out_features=1280, bias=False)
                (to_k): Linear(in_features=1280, out_features=1280, bias=False)
                (to_v): Linear(in_features=1280, out_features=1280, bias=False)
                (to_out): Module(
                  (0): Linear(in_features=1280, out_features=1280, bias=True)
                  (1): Dropout(p=0.0, inplace=False)
                )
              )
              (norm2): LayerNorm((1280,), eps=1e-05, elementwise_affine=True)
              (attn2): Module(
                (to_q): Linear(in_features=1280, out_features=1280, bias=False)
                (to_k): Linear(in_features=2048, out_features=1280, bias=False)
                (to_v): Linear(in_features=2048, out_features=1280, bias=False)
                (to_out): Module(
                  (0): Linear(in_features=1280, out_features=1280, bias=True)
                  (1): Dropout(p=0.0, inplace=False)
                )
              )
              (norm3): LayerNorm((1280,), eps=1e-05, elementwise_affine=True)
              (ff): Module(
                (net): Module(
                  (0): Module(
                    (proj): Linear(in_features=1280, out_features=10240, bias=True)
                  )
                  (1): Dropout(p=0.0, inplace=False)
                  (2): Linear(in_features=5120, out_features=1280, bias=True)
                )
              )
            )
            (1): Module(
              (norm1): LayerNorm((1280,), eps=1e-05, elementwise_affine=True)
              (attn1): Module(
                (to_q): Linear(in_features=1280, out_features=1280, bias=False)
                (to_k): Linear(in_features=1280, out_features=1280, bias=False)
                (to_v): Linear(in_features=1280, out_features=1280, bias=False)
                (to_out): Module(
                  (0): Linear(in_features=1280, out_features=1280, bias=True)
                  (1): Dropout(p=0.0, inplace=False)
                )
              )
              (norm2): LayerNorm((1280,), eps=1e-05, elementwise_affine=True)
              (attn2): Module(
                (to_q): Linear(in_features=1280, out_features=1280, bias=False)
                (to_k): Linear(in_features=2048, out_features=1280, bias=False)
                (to_v): Linear(in_features=2048, out_features=1280, bias=False)
                (to_out): Module(
                  (0): Linear(in_features=1280, out_features=1280, bias=True)
                  (1): Dropout(p=0.0, inplace=False)
                )
              )
              (norm3): LayerNorm((1280,), eps=1e-05, elementwise_affine=True)
              (ff): Module(
                (net): Module(
                  (0): Module(
                    (proj): Linear(in_features=1280, out_features=10240, bias=True)
                  )
                  (1): Dropout(p=0.0, inplace=False)
                  (2): Linear(in_features=5120, out_features=1280, bias=True)
                )
              )
            )
            (2): Module(
              (norm1): LayerNorm((1280,), eps=1e-05, elementwise_affine=True)
              (attn1): Module(
                (to_q): Linear(in_features=1280, out_features=1280, bias=False)
                (to_k): Linear(in_features=1280, out_features=1280, bias=False)
                (to_v): Linear(in_features=1280, out_features=1280, bias=False)
                (to_out): Module(
                  (0): Linear(in_features=1280, out_features=1280, bias=True)
                  (1): Dropout(p=0.0, inplace=False)
                )
              )
              (norm2): LayerNorm((1280,), eps=1e-05, elementwise_affine=True)
              (attn2): Module(
                (to_q): Linear(in_features=1280, out_features=1280, bias=False)
                (to_k): Linear(in_features=2048, out_features=1280, bias=False)
                (to_v): Linear(in_features=2048, out_features=1280, bias=False)
                (to_out): Module(
                  (0): Linear(in_features=1280, out_features=1280, bias=True)
                  (1): Dropout(p=0.0, inplace=False)
                )
              )
              (norm3): LayerNorm((1280,), eps=1e-05, elementwise_affine=True)
              (ff): Module(
                (net): Module(
                  (0): Module(
                    (proj): Linear(in_features=1280, out_features=10240, bias=True)
                  )
                  (1): Dropout(p=0.0, inplace=False)
                  (2): Linear(in_features=5120, out_features=1280, bias=True)
                )
              )
            )
            (3): Module(
              (norm1): LayerNorm((1280,), eps=1e-05, elementwise_affine=True)
              (attn1): Module(
                (to_q): Linear(in_features=1280, out_features=1280, bias=False)
                (to_k): Linear(in_features=1280, out_features=1280, bias=False)
                (to_v): Linear(in_features=1280, out_features=1280, bias=False)
                (to_out): Module(
                  (0): Linear(in_features=1280, out_features=1280, bias=True)
                  (1): Dropout(p=0.0, inplace=False)
                )
              )
              (norm2): LayerNorm((1280,), eps=1e-05, elementwise_affine=True)
              (attn2): Module(
                (to_q): Linear(in_features=1280, out_features=1280, bias=False)
                (to_k): Linear(in_features=2048, out_features=1280, bias=False)
                (to_v): Linear(in_features=2048, out_features=1280, bias=False)
                (to_out): Module(
                  (0): Linear(in_features=1280, out_features=1280, bias=True)
                  (1): Dropout(p=0.0, inplace=False)
                )
              )
              (norm3): LayerNorm((1280,), eps=1e-05, elementwise_affine=True)
              (ff): Module(
                (net): Module(
                  (0): Module(
                    (proj): Linear(in_features=1280, out_features=10240, bias=True)
                  )
                  (1): Dropout(p=0.0, inplace=False)
                  (2): Linear(in_features=5120, out_features=1280, bias=True)
                )
              )
            )
            (4): Module(
              (norm1): LayerNorm((1280,), eps=1e-05, elementwise_affine=True)
              (attn1): Module(
                (to_q): Linear(in_features=1280, out_features=1280, bias=False)
                (to_k): Linear(in_features=1280, out_features=1280, bias=False)
                (to_v): Linear(in_features=1280, out_features=1280, bias=False)
                (to_out): Module(
                  (0): Linear(in_features=1280, out_features=1280, bias=True)
                  (1): Dropout(p=0.0, inplace=False)
                )
              )
              (norm2): LayerNorm((1280,), eps=1e-05, elementwise_affine=True)
              (attn2): Module(
                (to_q): Linear(in_features=1280, out_features=1280, bias=False)
                (to_k): Linear(in_features=2048, out_features=1280, bias=False)
                (to_v): Linear(in_features=2048, out_features=1280, bias=False)
                (to_out): Module(
                  (0): Linear(in_features=1280, out_features=1280, bias=True)
                  (1): Dropout(p=0.0, inplace=False)
                )
              )
              (norm3): LayerNorm((1280,), eps=1e-05, elementwise_affine=True)
              (ff): Module(
                (net): Module(
                  (0): Module(
                    (proj): Linear(in_features=1280, out_features=10240, bias=True)
                  )
                  (1): Dropout(p=0.0, inplace=False)
                  (2): Linear(in_features=5120, out_features=1280, bias=True)
                )
              )
            )
            (5): Module(
              (norm1): LayerNorm((1280,), eps=1e-05, elementwise_affine=True)
              (attn1): Module(
                (to_q): Linear(in_features=1280, out_features=1280, bias=False)
                (to_k): Linear(in_features=1280, out_features=1280, bias=False)
                (to_v): Linear(in_features=1280, out_features=1280, bias=False)
                (to_out): Module(
                  (0): Linear(in_features=1280, out_features=1280, bias=True)
                  (1): Dropout(p=0.0, inplace=False)
                )
              )
              (norm2): LayerNorm((1280,), eps=1e-05, elementwise_affine=True)
              (attn2): Module(
                (to_q): Linear(in_features=1280, out_features=1280, bias=False)
                (to_k): Linear(in_features=2048, out_features=1280, bias=False)
                (to_v): Linear(in_features=2048, out_features=1280, bias=False)
                (to_out): Module(
                  (0): Linear(in_features=1280, out_features=1280, bias=True)
                  (1): Dropout(p=0.0, inplace=False)
                )
              )
              (norm3): LayerNorm((1280,), eps=1e-05, elementwise_affine=True)
              (ff): Module(
                (net): Module(
                  (0): Module(
                    (proj): Linear(in_features=1280, out_features=10240, bias=True)
                  )
                  (1): Dropout(p=0.0, inplace=False)
                  (2): Linear(in_features=5120, out_features=1280, bias=True)
                )
              )
            )
            (6): Module(
              (norm1): LayerNorm((1280,), eps=1e-05, elementwise_affine=True)
              (attn1): Module(
                (to_q): Linear(in_features=1280, out_features=1280, bias=False)
                (to_k): Linear(in_features=1280, out_features=1280, bias=False)
                (to_v): Linear(in_features=1280, out_features=1280, bias=False)
                (to_out): Module(
                  (0): Linear(in_features=1280, out_features=1280, bias=True)
                  (1): Dropout(p=0.0, inplace=False)
                )
              )
              (norm2): LayerNorm((1280,), eps=1e-05, elementwise_affine=True)
              (attn2): Module(
                (to_q): Linear(in_features=1280, out_features=1280, bias=False)
                (to_k): Linear(in_features=2048, out_features=1280, bias=False)
                (to_v): Linear(in_features=2048, out_features=1280, bias=False)
                (to_out): Module(
                  (0): Linear(in_features=1280, out_features=1280, bias=True)
                  (1): Dropout(p=0.0, inplace=False)
                )
              )
              (norm3): LayerNorm((1280,), eps=1e-05, elementwise_affine=True)
              (ff): Module(
                (net): Module(
                  (0): Module(
                    (proj): Linear(in_features=1280, out_features=10240, bias=True)
                  )
                  (1): Dropout(p=0.0, inplace=False)
                  (2): Linear(in_features=5120, out_features=1280, bias=True)
                )
              )
            )
            (7): Module(
              (norm1): LayerNorm((1280,), eps=1e-05, elementwise_affine=True)
              (attn1): Module(
                (to_q): Linear(in_features=1280, out_features=1280, bias=False)
                (to_k): Linear(in_features=1280, out_features=1280, bias=False)
                (to_v): Linear(in_features=1280, out_features=1280, bias=False)
                (to_out): Module(
                  (0): Linear(in_features=1280, out_features=1280, bias=True)
                  (1): Dropout(p=0.0, inplace=False)
                )
              )
              (norm2): LayerNorm((1280,), eps=1e-05, elementwise_affine=True)
              (attn2): Module(
                (to_q): Linear(in_features=1280, out_features=1280, bias=False)
                (to_k): Linear(in_features=2048, out_features=1280, bias=False)
                (to_v): Linear(in_features=2048, out_features=1280, bias=False)
                (to_out): Module(
                  (0): Linear(in_features=1280, out_features=1280, bias=True)
                  (1): Dropout(p=0.0, inplace=False)
                )
              )
              (norm3): LayerNorm((1280,), eps=1e-05, elementwise_affine=True)
              (ff): Module(
                (net): Module(
                  (0): Module(
                    (proj): Linear(in_features=1280, out_features=10240, bias=True)
                  )
                  (1): Dropout(p=0.0, inplace=False)
                  (2): Linear(in_features=5120, out_features=1280, bias=True)
                )
              )
            )
            (8): Module(
              (norm1): LayerNorm((1280,), eps=1e-05, elementwise_affine=True)
              (attn1): Module(
                (to_q): Linear(in_features=1280, out_features=1280, bias=False)
                (to_k): Linear(in_features=1280, out_features=1280, bias=False)
                (to_v): Linear(in_features=1280, out_features=1280, bias=False)
                (to_out): Module(
                  (0): Linear(in_features=1280, out_features=1280, bias=True)
                  (1): Dropout(p=0.0, inplace=False)
                )
              )
              (norm2): LayerNorm((1280,), eps=1e-05, elementwise_affine=True)
              (attn2): Module(
                (to_q): Linear(in_features=1280, out_features=1280, bias=False)
                (to_k): Linear(in_features=2048, out_features=1280, bias=False)
                (to_v): Linear(in_features=2048, out_features=1280, bias=False)
                (to_out): Module(
                  (0): Linear(in_features=1280, out_features=1280, bias=True)
                  (1): Dropout(p=0.0, inplace=False)
                )
              )
              (norm3): LayerNorm((1280,), eps=1e-05, elementwise_affine=True)
              (ff): Module(
                (net): Module(
                  (0): Module(
                    (proj): Linear(in_features=1280, out_features=10240, bias=True)
                  )
                  (1): Dropout(p=0.0, inplace=False)
                  (2): Linear(in_features=5120, out_features=1280, bias=True)
                )
              )
            )
            (9): Module(
              (norm1): LayerNorm((1280,), eps=1e-05, elementwise_affine=True)
              (attn1): Module(
                (to_q): Linear(in_features=1280, out_features=1280, bias=False)
                (to_k): Linear(in_features=1280, out_features=1280, bias=False)
                (to_v): Linear(in_features=1280, out_features=1280, bias=False)
                (to_out): Module(
                  (0): Linear(in_features=1280, out_features=1280, bias=True)
                  (1): Dropout(p=0.0, inplace=False)
                )
              )
              (norm2): LayerNorm((1280,), eps=1e-05, elementwise_affine=True)
              (attn2): Module(
                (to_q): Linear(in_features=1280, out_features=1280, bias=False)
                (to_k): Linear(in_features=2048, out_features=1280, bias=False)
                (to_v): Linear(in_features=2048, out_features=1280, bias=False)
                (to_out): Module(
                  (0): Linear(in_features=1280, out_features=1280, bias=True)
                  (1): Dropout(p=0.0, inplace=False)
                )
              )
              (norm3): LayerNorm((1280,), eps=1e-05, elementwise_affine=True)
              (ff): Module(
                (net): Module(
                  (0): Module(
                    (proj): Linear(in_features=1280, out_features=10240, bias=True)
                  )
                  (1): Dropout(p=0.0, inplace=False)
                  (2): Linear(in_features=5120, out_features=1280, bias=True)
                )
              )
            )
          )
          (proj_out): Linear(in_features=1280, out_features=1280, bias=True)
        )
        (1): Module(
          (norm): GroupNorm(32, 1280, eps=1e-06, affine=True)
          (proj_in): Linear(in_features=1280, out_features=1280, bias=True)
          (transformer_blocks): Module(
            (0): Module(
              (norm1): LayerNorm((1280,), eps=1e-05, elementwise_affine=True)
              (attn1): Module(
                (to_q): Linear(in_features=1280, out_features=1280, bias=False)
                (to_k): Linear(in_features=1280, out_features=1280, bias=False)
                (to_v): Linear(in_features=1280, out_features=1280, bias=False)
                (to_out): Module(
                  (0): Linear(in_features=1280, out_features=1280, bias=True)
                  (1): Dropout(p=0.0, inplace=False)
                )
              )
              (norm2): LayerNorm((1280,), eps=1e-05, elementwise_affine=True)
              (attn2): Module(
                (to_q): Linear(in_features=1280, out_features=1280, bias=False)
                (to_k): Linear(in_features=2048, out_features=1280, bias=False)
                (to_v): Linear(in_features=2048, out_features=1280, bias=False)
                (to_out): Module(
                  (0): Linear(in_features=1280, out_features=1280, bias=True)
                  (1): Dropout(p=0.0, inplace=False)
                )
              )
              (norm3): LayerNorm((1280,), eps=1e-05, elementwise_affine=True)
              (ff): Module(
                (net): Module(
                  (0): Module(
                    (proj): Linear(in_features=1280, out_features=10240, bias=True)
                  )
                  (1): Dropout(p=0.0, inplace=False)
                  (2): Linear(in_features=5120, out_features=1280, bias=True)
                )
              )
            )
            (1): Module(
              (norm1): LayerNorm((1280,), eps=1e-05, elementwise_affine=True)
              (attn1): Module(
                (to_q): Linear(in_features=1280, out_features=1280, bias=False)
                (to_k): Linear(in_features=1280, out_features=1280, bias=False)
                (to_v): Linear(in_features=1280, out_features=1280, bias=False)
                (to_out): Module(
                  (0): Linear(in_features=1280, out_features=1280, bias=True)
                  (1): Dropout(p=0.0, inplace=False)
                )
              )
              (norm2): LayerNorm((1280,), eps=1e-05, elementwise_affine=True)
              (attn2): Module(
                (to_q): Linear(in_features=1280, out_features=1280, bias=False)
                (to_k): Linear(in_features=2048, out_features=1280, bias=False)
                (to_v): Linear(in_features=2048, out_features=1280, bias=False)
                (to_out): Module(
                  (0): Linear(in_features=1280, out_features=1280, bias=True)
                  (1): Dropout(p=0.0, inplace=False)
                )
              )
              (norm3): LayerNorm((1280,), eps=1e-05, elementwise_affine=True)
              (ff): Module(
                (net): Module(
                  (0): Module(
                    (proj): Linear(in_features=1280, out_features=10240, bias=True)
                  )
                  (1): Dropout(p=0.0, inplace=False)
                  (2): Linear(in_features=5120, out_features=1280, bias=True)
                )
              )
            )
            (2): Module(
              (norm1): LayerNorm((1280,), eps=1e-05, elementwise_affine=True)
              (attn1): Module(
                (to_q): Linear(in_features=1280, out_features=1280, bias=False)
                (to_k): Linear(in_features=1280, out_features=1280, bias=False)
                (to_v): Linear(in_features=1280, out_features=1280, bias=False)
                (to_out): Module(
                  (0): Linear(in_features=1280, out_features=1280, bias=True)
                  (1): Dropout(p=0.0, inplace=False)
                )
              )
              (norm2): LayerNorm((1280,), eps=1e-05, elementwise_affine=True)
              (attn2): Module(
                (to_q): Linear(in_features=1280, out_features=1280, bias=False)
                (to_k): Linear(in_features=2048, out_features=1280, bias=False)
                (to_v): Linear(in_features=2048, out_features=1280, bias=False)
                (to_out): Module(
                  (0): Linear(in_features=1280, out_features=1280, bias=True)
                  (1): Dropout(p=0.0, inplace=False)
                )
              )
              (norm3): LayerNorm((1280,), eps=1e-05, elementwise_affine=True)
              (ff): Module(
                (net): Module(
                  (0): Module(
                    (proj): Linear(in_features=1280, out_features=10240, bias=True)
                  )
                  (1): Dropout(p=0.0, inplace=False)
                  (2): Linear(in_features=5120, out_features=1280, bias=True)
                )
              )
            )
            (3): Module(
              (norm1): LayerNorm((1280,), eps=1e-05, elementwise_affine=True)
              (attn1): Module(
                (to_q): Linear(in_features=1280, out_features=1280, bias=False)
                (to_k): Linear(in_features=1280, out_features=1280, bias=False)
                (to_v): Linear(in_features=1280, out_features=1280, bias=False)
                (to_out): Module(
                  (0): Linear(in_features=1280, out_features=1280, bias=True)
                  (1): Dropout(p=0.0, inplace=False)
                )
              )
              (norm2): LayerNorm((1280,), eps=1e-05, elementwise_affine=True)
              (attn2): Module(
                (to_q): Linear(in_features=1280, out_features=1280, bias=False)
                (to_k): Linear(in_features=2048, out_features=1280, bias=False)
                (to_v): Linear(in_features=2048, out_features=1280, bias=False)
                (to_out): Module(
                  (0): Linear(in_features=1280, out_features=1280, bias=True)
                  (1): Dropout(p=0.0, inplace=False)
                )
              )
              (norm3): LayerNorm((1280,), eps=1e-05, elementwise_affine=True)
              (ff): Module(
                (net): Module(
                  (0): Module(
                    (proj): Linear(in_features=1280, out_features=10240, bias=True)
                  )
                  (1): Dropout(p=0.0, inplace=False)
                  (2): Linear(in_features=5120, out_features=1280, bias=True)
                )
              )
            )
            (4): Module(
              (norm1): LayerNorm((1280,), eps=1e-05, elementwise_affine=True)
              (attn1): Module(
                (to_q): Linear(in_features=1280, out_features=1280, bias=False)
                (to_k): Linear(in_features=1280, out_features=1280, bias=False)
                (to_v): Linear(in_features=1280, out_features=1280, bias=False)
                (to_out): Module(
                  (0): Linear(in_features=1280, out_features=1280, bias=True)
                  (1): Dropout(p=0.0, inplace=False)
                )
              )
              (norm2): LayerNorm((1280,), eps=1e-05, elementwise_affine=True)
              (attn2): Module(
                (to_q): Linear(in_features=1280, out_features=1280, bias=False)
                (to_k): Linear(in_features=2048, out_features=1280, bias=False)
                (to_v): Linear(in_features=2048, out_features=1280, bias=False)
                (to_out): Module(
                  (0): Linear(in_features=1280, out_features=1280, bias=True)
                  (1): Dropout(p=0.0, inplace=False)
                )
              )
              (norm3): LayerNorm((1280,), eps=1e-05, elementwise_affine=True)
              (ff): Module(
                (net): Module(
                  (0): Module(
                    (proj): Linear(in_features=1280, out_features=10240, bias=True)
                  )
                  (1): Dropout(p=0.0, inplace=False)
                  (2): Linear(in_features=5120, out_features=1280, bias=True)
                )
              )
            )
            (5): Module(
              (norm1): LayerNorm((1280,), eps=1e-05, elementwise_affine=True)
              (attn1): Module(
                (to_q): Linear(in_features=1280, out_features=1280, bias=False)
                (to_k): Linear(in_features=1280, out_features=1280, bias=False)
                (to_v): Linear(in_features=1280, out_features=1280, bias=False)
                (to_out): Module(
                  (0): Linear(in_features=1280, out_features=1280, bias=True)
                  (1): Dropout(p=0.0, inplace=False)
                )
              )
              (norm2): LayerNorm((1280,), eps=1e-05, elementwise_affine=True)
              (attn2): Module(
                (to_q): Linear(in_features=1280, out_features=1280, bias=False)
                (to_k): Linear(in_features=2048, out_features=1280, bias=False)
                (to_v): Linear(in_features=2048, out_features=1280, bias=False)
                (to_out): Module(
                  (0): Linear(in_features=1280, out_features=1280, bias=True)
                  (1): Dropout(p=0.0, inplace=False)
                )
              )
              (norm3): LayerNorm((1280,), eps=1e-05, elementwise_affine=True)
              (ff): Module(
                (net): Module(
                  (0): Module(
                    (proj): Linear(in_features=1280, out_features=10240, bias=True)
                  )
                  (1): Dropout(p=0.0, inplace=False)
                  (2): Linear(in_features=5120, out_features=1280, bias=True)
                )
              )
            )
            (6): Module(
              (norm1): LayerNorm((1280,), eps=1e-05, elementwise_affine=True)
              (attn1): Module(
                (to_q): Linear(in_features=1280, out_features=1280, bias=False)
                (to_k): Linear(in_features=1280, out_features=1280, bias=False)
                (to_v): Linear(in_features=1280, out_features=1280, bias=False)
                (to_out): Module(
                  (0): Linear(in_features=1280, out_features=1280, bias=True)
                  (1): Dropout(p=0.0, inplace=False)
                )
              )
              (norm2): LayerNorm((1280,), eps=1e-05, elementwise_affine=True)
              (attn2): Module(
                (to_q): Linear(in_features=1280, out_features=1280, bias=False)
                (to_k): Linear(in_features=2048, out_features=1280, bias=False)
                (to_v): Linear(in_features=2048, out_features=1280, bias=False)
                (to_out): Module(
                  (0): Linear(in_features=1280, out_features=1280, bias=True)
                  (1): Dropout(p=0.0, inplace=False)
                )
              )
              (norm3): LayerNorm((1280,), eps=1e-05, elementwise_affine=True)
              (ff): Module(
                (net): Module(
                  (0): Module(
                    (proj): Linear(in_features=1280, out_features=10240, bias=True)
                  )
                  (1): Dropout(p=0.0, inplace=False)
                  (2): Linear(in_features=5120, out_features=1280, bias=True)
                )
              )
            )
            (7): Module(
              (norm1): LayerNorm((1280,), eps=1e-05, elementwise_affine=True)
              (attn1): Module(
                (to_q): Linear(in_features=1280, out_features=1280, bias=False)
                (to_k): Linear(in_features=1280, out_features=1280, bias=False)
                (to_v): Linear(in_features=1280, out_features=1280, bias=False)
                (to_out): Module(
                  (0): Linear(in_features=1280, out_features=1280, bias=True)
                  (1): Dropout(p=0.0, inplace=False)
                )
              )
              (norm2): LayerNorm((1280,), eps=1e-05, elementwise_affine=True)
              (attn2): Module(
                (to_q): Linear(in_features=1280, out_features=1280, bias=False)
                (to_k): Linear(in_features=2048, out_features=1280, bias=False)
                (to_v): Linear(in_features=2048, out_features=1280, bias=False)
                (to_out): Module(
                  (0): Linear(in_features=1280, out_features=1280, bias=True)
                  (1): Dropout(p=0.0, inplace=False)
                )
              )
              (norm3): LayerNorm((1280,), eps=1e-05, elementwise_affine=True)
              (ff): Module(
                (net): Module(
                  (0): Module(
                    (proj): Linear(in_features=1280, out_features=10240, bias=True)
                  )
                  (1): Dropout(p=0.0, inplace=False)
                  (2): Linear(in_features=5120, out_features=1280, bias=True)
                )
              )
            )
            (8): Module(
              (norm1): LayerNorm((1280,), eps=1e-05, elementwise_affine=True)
              (attn1): Module(
                (to_q): Linear(in_features=1280, out_features=1280, bias=False)
                (to_k): Linear(in_features=1280, out_features=1280, bias=False)
                (to_v): Linear(in_features=1280, out_features=1280, bias=False)
                (to_out): Module(
                  (0): Linear(in_features=1280, out_features=1280, bias=True)
                  (1): Dropout(p=0.0, inplace=False)
                )
              )
              (norm2): LayerNorm((1280,), eps=1e-05, elementwise_affine=True)
              (attn2): Module(
                (to_q): Linear(in_features=1280, out_features=1280, bias=False)
                (to_k): Linear(in_features=2048, out_features=1280, bias=False)
                (to_v): Linear(in_features=2048, out_features=1280, bias=False)
                (to_out): Module(
                  (0): Linear(in_features=1280, out_features=1280, bias=True)
                  (1): Dropout(p=0.0, inplace=False)
                )
              )
              (norm3): LayerNorm((1280,), eps=1e-05, elementwise_affine=True)
              (ff): Module(
                (net): Module(
                  (0): Module(
                    (proj): Linear(in_features=1280, out_features=10240, bias=True)
                  )
                  (1): Dropout(p=0.0, inplace=False)
                  (2): Linear(in_features=5120, out_features=1280, bias=True)
                )
              )
            )
            (9): Module(
              (norm1): LayerNorm((1280,), eps=1e-05, elementwise_affine=True)
              (attn1): Module(
                (to_q): Linear(in_features=1280, out_features=1280, bias=False)
                (to_k): Linear(in_features=1280, out_features=1280, bias=False)
                (to_v): Linear(in_features=1280, out_features=1280, bias=False)
                (to_out): Module(
                  (0): Linear(in_features=1280, out_features=1280, bias=True)
                  (1): Dropout(p=0.0, inplace=False)
                )
              )
              (norm2): LayerNorm((1280,), eps=1e-05, elementwise_affine=True)
              (attn2): Module(
                (to_q): Linear(in_features=1280, out_features=1280, bias=False)
                (to_k): Linear(in_features=2048, out_features=1280, bias=False)
                (to_v): Linear(in_features=2048, out_features=1280, bias=False)
                (to_out): Module(
                  (0): Linear(in_features=1280, out_features=1280, bias=True)
                  (1): Dropout(p=0.0, inplace=False)
                )
              )
              (norm3): LayerNorm((1280,), eps=1e-05, elementwise_affine=True)
              (ff): Module(
                (net): Module(
                  (0): Module(
                    (proj): Linear(in_features=1280, out_features=10240, bias=True)
                  )
                  (1): Dropout(p=0.0, inplace=False)
                  (2): Linear(in_features=5120, out_features=1280, bias=True)
                )
              )
            )
          )
          (proj_out): Linear(in_features=1280, out_features=1280, bias=True)
        )
        (2): Module(
          (norm): GroupNorm(32, 1280, eps=1e-06, affine=True)
          (proj_in): Linear(in_features=1280, out_features=1280, bias=True)
          (transformer_blocks): Module(
            (0): Module(
              (norm1): LayerNorm((1280,), eps=1e-05, elementwise_affine=True)
              (attn1): Module(
                (to_q): Linear(in_features=1280, out_features=1280, bias=False)
                (to_k): Linear(in_features=1280, out_features=1280, bias=False)
                (to_v): Linear(in_features=1280, out_features=1280, bias=False)
                (to_out): Module(
                  (0): Linear(in_features=1280, out_features=1280, bias=True)
                  (1): Dropout(p=0.0, inplace=False)
                )
              )
              (norm2): LayerNorm((1280,), eps=1e-05, elementwise_affine=True)
              (attn2): Module(
                (to_q): Linear(in_features=1280, out_features=1280, bias=False)
                (to_k): Linear(in_features=2048, out_features=1280, bias=False)
                (to_v): Linear(in_features=2048, out_features=1280, bias=False)
                (to_out): Module(
                  (0): Linear(in_features=1280, out_features=1280, bias=True)
                  (1): Dropout(p=0.0, inplace=False)
                )
              )
              (norm3): LayerNorm((1280,), eps=1e-05, elementwise_affine=True)
              (ff): Module(
                (net): Module(
                  (0): Module(
                    (proj): Linear(in_features=1280, out_features=10240, bias=True)
                  )
                  (1): Dropout(p=0.0, inplace=False)
                  (2): Linear(in_features=5120, out_features=1280, bias=True)
                )
              )
            )
            (1): Module(
              (norm1): LayerNorm((1280,), eps=1e-05, elementwise_affine=True)
              (attn1): Module(
                (to_q): Linear(in_features=1280, out_features=1280, bias=False)
                (to_k): Linear(in_features=1280, out_features=1280, bias=False)
                (to_v): Linear(in_features=1280, out_features=1280, bias=False)
                (to_out): Module(
                  (0): Linear(in_features=1280, out_features=1280, bias=True)
                  (1): Dropout(p=0.0, inplace=False)
                )
              )
              (norm2): LayerNorm((1280,), eps=1e-05, elementwise_affine=True)
              (attn2): Module(
                (to_q): Linear(in_features=1280, out_features=1280, bias=False)
                (to_k): Linear(in_features=2048, out_features=1280, bias=False)
                (to_v): Linear(in_features=2048, out_features=1280, bias=False)
                (to_out): Module(
                  (0): Linear(in_features=1280, out_features=1280, bias=True)
                  (1): Dropout(p=0.0, inplace=False)
                )
              )
              (norm3): LayerNorm((1280,), eps=1e-05, elementwise_affine=True)
              (ff): Module(
                (net): Module(
                  (0): Module(
                    (proj): Linear(in_features=1280, out_features=10240, bias=True)
                  )
                  (1): Dropout(p=0.0, inplace=False)
                  (2): Linear(in_features=5120, out_features=1280, bias=True)
                )
              )
            )
            (2): Module(
              (norm1): LayerNorm((1280,), eps=1e-05, elementwise_affine=True)
              (attn1): Module(
                (to_q): Linear(in_features=1280, out_features=1280, bias=False)
                (to_k): Linear(in_features=1280, out_features=1280, bias=False)
                (to_v): Linear(in_features=1280, out_features=1280, bias=False)
                (to_out): Module(
                  (0): Linear(in_features=1280, out_features=1280, bias=True)
                  (1): Dropout(p=0.0, inplace=False)
                )
              )
              (norm2): LayerNorm((1280,), eps=1e-05, elementwise_affine=True)
              (attn2): Module(
                (to_q): Linear(in_features=1280, out_features=1280, bias=False)
                (to_k): Linear(in_features=2048, out_features=1280, bias=False)
                (to_v): Linear(in_features=2048, out_features=1280, bias=False)
                (to_out): Module(
                  (0): Linear(in_features=1280, out_features=1280, bias=True)
                  (1): Dropout(p=0.0, inplace=False)
                )
              )
              (norm3): LayerNorm((1280,), eps=1e-05, elementwise_affine=True)
              (ff): Module(
                (net): Module(
                  (0): Module(
                    (proj): Linear(in_features=1280, out_features=10240, bias=True)
                  )
                  (1): Dropout(p=0.0, inplace=False)
                  (2): Linear(in_features=5120, out_features=1280, bias=True)
                )
              )
            )
            (3): Module(
              (norm1): LayerNorm((1280,), eps=1e-05, elementwise_affine=True)
              (attn1): Module(
                (to_q): Linear(in_features=1280, out_features=1280, bias=False)
                (to_k): Linear(in_features=1280, out_features=1280, bias=False)
                (to_v): Linear(in_features=1280, out_features=1280, bias=False)
                (to_out): Module(
                  (0): Linear(in_features=1280, out_features=1280, bias=True)
                  (1): Dropout(p=0.0, inplace=False)
                )
              )
              (norm2): LayerNorm((1280,), eps=1e-05, elementwise_affine=True)
              (attn2): Module(
                (to_q): Linear(in_features=1280, out_features=1280, bias=False)
                (to_k): Linear(in_features=2048, out_features=1280, bias=False)
                (to_v): Linear(in_features=2048, out_features=1280, bias=False)
                (to_out): Module(
                  (0): Linear(in_features=1280, out_features=1280, bias=True)
                  (1): Dropout(p=0.0, inplace=False)
                )
              )
              (norm3): LayerNorm((1280,), eps=1e-05, elementwise_affine=True)
              (ff): Module(
                (net): Module(
                  (0): Module(
                    (proj): Linear(in_features=1280, out_features=10240, bias=True)
                  )
                  (1): Dropout(p=0.0, inplace=False)
                  (2): Linear(in_features=5120, out_features=1280, bias=True)
                )
              )
            )
            (4): Module(
              (norm1): LayerNorm((1280,), eps=1e-05, elementwise_affine=True)
              (attn1): Module(
                (to_q): Linear(in_features=1280, out_features=1280, bias=False)
                (to_k): Linear(in_features=1280, out_features=1280, bias=False)
                (to_v): Linear(in_features=1280, out_features=1280, bias=False)
                (to_out): Module(
                  (0): Linear(in_features=1280, out_features=1280, bias=True)
                  (1): Dropout(p=0.0, inplace=False)
                )
              )
              (norm2): LayerNorm((1280,), eps=1e-05, elementwise_affine=True)
              (attn2): Module(
                (to_q): Linear(in_features=1280, out_features=1280, bias=False)
                (to_k): Linear(in_features=2048, out_features=1280, bias=False)
                (to_v): Linear(in_features=2048, out_features=1280, bias=False)
                (to_out): Module(
                  (0): Linear(in_features=1280, out_features=1280, bias=True)
                  (1): Dropout(p=0.0, inplace=False)
                )
              )
              (norm3): LayerNorm((1280,), eps=1e-05, elementwise_affine=True)
              (ff): Module(
                (net): Module(
                  (0): Module(
                    (proj): Linear(in_features=1280, out_features=10240, bias=True)
                  )
                  (1): Dropout(p=0.0, inplace=False)
                  (2): Linear(in_features=5120, out_features=1280, bias=True)
                )
              )
            )
            (5): Module(
              (norm1): LayerNorm((1280,), eps=1e-05, elementwise_affine=True)
              (attn1): Module(
                (to_q): Linear(in_features=1280, out_features=1280, bias=False)
                (to_k): Linear(in_features=1280, out_features=1280, bias=False)
                (to_v): Linear(in_features=1280, out_features=1280, bias=False)
                (to_out): Module(
                  (0): Linear(in_features=1280, out_features=1280, bias=True)
                  (1): Dropout(p=0.0, inplace=False)
                )
              )
              (norm2): LayerNorm((1280,), eps=1e-05, elementwise_affine=True)
              (attn2): Module(
                (to_q): Linear(in_features=1280, out_features=1280, bias=False)
                (to_k): Linear(in_features=2048, out_features=1280, bias=False)
                (to_v): Linear(in_features=2048, out_features=1280, bias=False)
                (to_out): Module(
                  (0): Linear(in_features=1280, out_features=1280, bias=True)
                  (1): Dropout(p=0.0, inplace=False)
                )
              )
              (norm3): LayerNorm((1280,), eps=1e-05, elementwise_affine=True)
              (ff): Module(
                (net): Module(
                  (0): Module(
                    (proj): Linear(in_features=1280, out_features=10240, bias=True)
                  )
                  (1): Dropout(p=0.0, inplace=False)
                  (2): Linear(in_features=5120, out_features=1280, bias=True)
                )
              )
            )
            (6): Module(
              (norm1): LayerNorm((1280,), eps=1e-05, elementwise_affine=True)
              (attn1): Module(
                (to_q): Linear(in_features=1280, out_features=1280, bias=False)
                (to_k): Linear(in_features=1280, out_features=1280, bias=False)
                (to_v): Linear(in_features=1280, out_features=1280, bias=False)
                (to_out): Module(
                  (0): Linear(in_features=1280, out_features=1280, bias=True)
                  (1): Dropout(p=0.0, inplace=False)
                )
              )
              (norm2): LayerNorm((1280,), eps=1e-05, elementwise_affine=True)
              (attn2): Module(
                (to_q): Linear(in_features=1280, out_features=1280, bias=False)
                (to_k): Linear(in_features=2048, out_features=1280, bias=False)
                (to_v): Linear(in_features=2048, out_features=1280, bias=False)
                (to_out): Module(
                  (0): Linear(in_features=1280, out_features=1280, bias=True)
                  (1): Dropout(p=0.0, inplace=False)
                )
              )
              (norm3): LayerNorm((1280,), eps=1e-05, elementwise_affine=True)
              (ff): Module(
                (net): Module(
                  (0): Module(
                    (proj): Linear(in_features=1280, out_features=10240, bias=True)
                  )
                  (1): Dropout(p=0.0, inplace=False)
                  (2): Linear(in_features=5120, out_features=1280, bias=True)
                )
              )
            )
            (7): Module(
              (norm1): LayerNorm((1280,), eps=1e-05, elementwise_affine=True)
              (attn1): Module(
                (to_q): Linear(in_features=1280, out_features=1280, bias=False)
                (to_k): Linear(in_features=1280, out_features=1280, bias=False)
                (to_v): Linear(in_features=1280, out_features=1280, bias=False)
                (to_out): Module(
                  (0): Linear(in_features=1280, out_features=1280, bias=True)
                  (1): Dropout(p=0.0, inplace=False)
                )
              )
              (norm2): LayerNorm((1280,), eps=1e-05, elementwise_affine=True)
              (attn2): Module(
                (to_q): Linear(in_features=1280, out_features=1280, bias=False)
                (to_k): Linear(in_features=2048, out_features=1280, bias=False)
                (to_v): Linear(in_features=2048, out_features=1280, bias=False)
                (to_out): Module(
                  (0): Linear(in_features=1280, out_features=1280, bias=True)
                  (1): Dropout(p=0.0, inplace=False)
                )
              )
              (norm3): LayerNorm((1280,), eps=1e-05, elementwise_affine=True)
              (ff): Module(
                (net): Module(
                  (0): Module(
                    (proj): Linear(in_features=1280, out_features=10240, bias=True)
                  )
                  (1): Dropout(p=0.0, inplace=False)
                  (2): Linear(in_features=5120, out_features=1280, bias=True)
                )
              )
            )
            (8): Module(
              (norm1): LayerNorm((1280,), eps=1e-05, elementwise_affine=True)
              (attn1): Module(
                (to_q): Linear(in_features=1280, out_features=1280, bias=False)
                (to_k): Linear(in_features=1280, out_features=1280, bias=False)
                (to_v): Linear(in_features=1280, out_features=1280, bias=False)
                (to_out): Module(
                  (0): Linear(in_features=1280, out_features=1280, bias=True)
                  (1): Dropout(p=0.0, inplace=False)
                )
              )
              (norm2): LayerNorm((1280,), eps=1e-05, elementwise_affine=True)
              (attn2): Module(
                (to_q): Linear(in_features=1280, out_features=1280, bias=False)
                (to_k): Linear(in_features=2048, out_features=1280, bias=False)
                (to_v): Linear(in_features=2048, out_features=1280, bias=False)
                (to_out): Module(
                  (0): Linear(in_features=1280, out_features=1280, bias=True)
                  (1): Dropout(p=0.0, inplace=False)
                )
              )
              (norm3): LayerNorm((1280,), eps=1e-05, elementwise_affine=True)
              (ff): Module(
                (net): Module(
                  (0): Module(
                    (proj): Linear(in_features=1280, out_features=10240, bias=True)
                  )
                  (1): Dropout(p=0.0, inplace=False)
                  (2): Linear(in_features=5120, out_features=1280, bias=True)
                )
              )
            )
            (9): Module(
              (norm1): LayerNorm((1280,), eps=1e-05, elementwise_affine=True)
              (attn1): Module(
                (to_q): Linear(in_features=1280, out_features=1280, bias=False)
                (to_k): Linear(in_features=1280, out_features=1280, bias=False)
                (to_v): Linear(in_features=1280, out_features=1280, bias=False)
                (to_out): Module(
                  (0): Linear(in_features=1280, out_features=1280, bias=True)
                  (1): Dropout(p=0.0, inplace=False)
                )
              )
              (norm2): LayerNorm((1280,), eps=1e-05, elementwise_affine=True)
              (attn2): Module(
                (to_q): Linear(in_features=1280, out_features=1280, bias=False)
                (to_k): Linear(in_features=2048, out_features=1280, bias=False)
                (to_v): Linear(in_features=2048, out_features=1280, bias=False)
                (to_out): Module(
                  (0): Linear(in_features=1280, out_features=1280, bias=True)
                  (1): Dropout(p=0.0, inplace=False)
                )
              )
              (norm3): LayerNorm((1280,), eps=1e-05, elementwise_affine=True)
              (ff): Module(
                (net): Module(
                  (0): Module(
                    (proj): Linear(in_features=1280, out_features=10240, bias=True)
                  )
                  (1): Dropout(p=0.0, inplace=False)
                  (2): Linear(in_features=5120, out_features=1280, bias=True)
                )
              )
            )
          )
          (proj_out): Linear(in_features=1280, out_features=1280, bias=True)
        )
      )
      (upsamplers): Module(
        (0): Module(
          (conv): Conv2d(1280, 1280, kernel_size=(3, 3), stride=(1, 1), padding=(1, 1))
        )
      )
    )
    (1): Module(
      (resnets): Module(
        (0): Module(
          (norm1): GroupNorm(32, 1920, eps=1e-05, affine=True)
          (nonlinearity): SiLU()
          (conv1): Conv2d(1920, 640, kernel_size=(3, 3), stride=(1, 1), padding=(1, 1))
          (time_emb_proj): Linear(in_features=1280, out_features=640, bias=True)
          (norm2): GroupNorm(32, 640, eps=1e-05, affine=True)
          (dropout): Dropout(p=0.0, inplace=False)
          (conv2): Conv2d(640, 640, kernel_size=(3, 3), stride=(1, 1), padding=(1, 1))
          (conv_shortcut): Conv2d(1920, 640, kernel_size=(1, 1), stride=(1, 1))
        )
        (1): Module(
          (norm1): GroupNorm(32, 1280, eps=1e-05, affine=True)
          (nonlinearity): SiLU()
          (conv1): Conv2d(1280, 640, kernel_size=(3, 3), stride=(1, 1), padding=(1, 1))
          (time_emb_proj): Linear(in_features=1280, out_features=640, bias=True)
          (norm2): GroupNorm(32, 640, eps=1e-05, affine=True)
          (dropout): Dropout(p=0.0, inplace=False)
          (conv2): Conv2d(640, 640, kernel_size=(3, 3), stride=(1, 1), padding=(1, 1))
          (conv_shortcut): Conv2d(1280, 640, kernel_size=(1, 1), stride=(1, 1))
        )
        (2): Module(
          (norm1): GroupNorm(32, 960, eps=1e-05, affine=True)
          (nonlinearity): SiLU()
          (conv1): Conv2d(960, 640, kernel_size=(3, 3), stride=(1, 1), padding=(1, 1))
          (time_emb_proj): Linear(in_features=1280, out_features=640, bias=True)
          (norm2): GroupNorm(32, 640, eps=1e-05, affine=True)
          (dropout): Dropout(p=0.0, inplace=False)
          (conv2): Conv2d(640, 640, kernel_size=(3, 3), stride=(1, 1), padding=(1, 1))
          (conv_shortcut): Conv2d(960, 640, kernel_size=(1, 1), stride=(1, 1))
        )
      )
      (attentions): Module(
        (0): Module(
          (norm): GroupNorm(32, 640, eps=1e-06, affine=True)
          (proj_in): Linear(in_features=640, out_features=640, bias=True)
          (transformer_blocks): Module(
            (0): Module(
              (norm1): LayerNorm((640,), eps=1e-05, elementwise_affine=True)
              (attn1): Module(
                (to_q): Linear(in_features=640, out_features=640, bias=False)
                (to_k): Linear(in_features=640, out_features=640, bias=False)
                (to_v): Linear(in_features=640, out_features=640, bias=False)
                (to_out): Module(
                  (0): Linear(in_features=640, out_features=640, bias=True)
                  (1): Dropout(p=0.0, inplace=False)
                )
              )
              (norm2): LayerNorm((640,), eps=1e-05, elementwise_affine=True)
              (attn2): Module(
                (to_q): Linear(in_features=640, out_features=640, bias=False)
                (to_k): Linear(in_features=2048, out_features=640, bias=False)
                (to_v): Linear(in_features=2048, out_features=640, bias=False)
                (to_out): Module(
                  (0): Linear(in_features=640, out_features=640, bias=True)
                  (1): Dropout(p=0.0, inplace=False)
                )
              )
              (norm3): LayerNorm((640,), eps=1e-05, elementwise_affine=True)
              (ff): Module(
                (net): Module(
                  (0): Module(
                    (proj): Linear(in_features=640, out_features=5120, bias=True)
                  )
                  (1): Dropout(p=0.0, inplace=False)
                  (2): Linear(in_features=2560, out_features=640, bias=True)
                )
              )
            )
            (1): Module(
              (norm1): LayerNorm((640,), eps=1e-05, elementwise_affine=True)
              (attn1): Module(
                (to_q): Linear(in_features=640, out_features=640, bias=False)
                (to_k): Linear(in_features=640, out_features=640, bias=False)
                (to_v): Linear(in_features=640, out_features=640, bias=False)
                (to_out): Module(
                  (0): Linear(in_features=640, out_features=640, bias=True)
                  (1): Dropout(p=0.0, inplace=False)
                )
              )
              (norm2): LayerNorm((640,), eps=1e-05, elementwise_affine=True)
              (attn2): Module(
                (to_q): Linear(in_features=640, out_features=640, bias=False)
                (to_k): Linear(in_features=2048, out_features=640, bias=False)
                (to_v): Linear(in_features=2048, out_features=640, bias=False)
                (to_out): Module(
                  (0): Linear(in_features=640, out_features=640, bias=True)
                  (1): Dropout(p=0.0, inplace=False)
                )
              )
              (norm3): LayerNorm((640,), eps=1e-05, elementwise_affine=True)
              (ff): Module(
                (net): Module(
                  (0): Module(
                    (proj): Linear(in_features=640, out_features=5120, bias=True)
                  )
                  (1): Dropout(p=0.0, inplace=False)
                  (2): Linear(in_features=2560, out_features=640, bias=True)
                )
              )
            )
          )
          (proj_out): Linear(in_features=640, out_features=640, bias=True)
        )
        (1): Module(
          (norm): GroupNorm(32, 640, eps=1e-06, affine=True)
          (proj_in): Linear(in_features=640, out_features=640, bias=True)
          (transformer_blocks): Module(
            (0): Module(
              (norm1): LayerNorm((640,), eps=1e-05, elementwise_affine=True)
              (attn1): Module(
                (to_q): Linear(in_features=640, out_features=640, bias=False)
                (to_k): Linear(in_features=640, out_features=640, bias=False)
                (to_v): Linear(in_features=640, out_features=640, bias=False)
                (to_out): Module(
                  (0): Linear(in_features=640, out_features=640, bias=True)
                  (1): Dropout(p=0.0, inplace=False)
                )
              )
              (norm2): LayerNorm((640,), eps=1e-05, elementwise_affine=True)
              (attn2): Module(
                (to_q): Linear(in_features=640, out_features=640, bias=False)
                (to_k): Linear(in_features=2048, out_features=640, bias=False)
                (to_v): Linear(in_features=2048, out_features=640, bias=False)
                (to_out): Module(
                  (0): Linear(in_features=640, out_features=640, bias=True)
                  (1): Dropout(p=0.0, inplace=False)
                )
              )
              (norm3): LayerNorm((640,), eps=1e-05, elementwise_affine=True)
              (ff): Module(
                (net): Module(
                  (0): Module(
                    (proj): Linear(in_features=640, out_features=5120, bias=True)
                  )
                  (1): Dropout(p=0.0, inplace=False)
                  (2): Linear(in_features=2560, out_features=640, bias=True)
                )
              )
            )
            (1): Module(
              (norm1): LayerNorm((640,), eps=1e-05, elementwise_affine=True)
              (attn1): Module(
                (to_q): Linear(in_features=640, out_features=640, bias=False)
                (to_k): Linear(in_features=640, out_features=640, bias=False)
                (to_v): Linear(in_features=640, out_features=640, bias=False)
                (to_out): Module(
                  (0): Linear(in_features=640, out_features=640, bias=True)
                  (1): Dropout(p=0.0, inplace=False)
                )
              )
              (norm2): LayerNorm((640,), eps=1e-05, elementwise_affine=True)
              (attn2): Module(
                (to_q): Linear(in_features=640, out_features=640, bias=False)
                (to_k): Linear(in_features=2048, out_features=640, bias=False)
                (to_v): Linear(in_features=2048, out_features=640, bias=False)
                (to_out): Module(
                  (0): Linear(in_features=640, out_features=640, bias=True)
                  (1): Dropout(p=0.0, inplace=False)
                )
              )
              (norm3): LayerNorm((640,), eps=1e-05, elementwise_affine=True)
              (ff): Module(
                (net): Module(
                  (0): Module(
                    (proj): Linear(in_features=640, out_features=5120, bias=True)
                  )
                  (1): Dropout(p=0.0, inplace=False)
                  (2): Linear(in_features=2560, out_features=640, bias=True)
                )
              )
            )
          )
          (proj_out): Linear(in_features=640, out_features=640, bias=True)
        )
        (2): Module(
          (norm): GroupNorm(32, 640, eps=1e-06, affine=True)
          (proj_in): Linear(in_features=640, out_features=640, bias=True)
          (transformer_blocks): Module(
            (0): Module(
              (norm1): LayerNorm((640,), eps=1e-05, elementwise_affine=True)
              (attn1): Module(
                (to_q): Linear(in_features=640, out_features=640, bias=False)
                (to_k): Linear(in_features=640, out_features=640, bias=False)
                (to_v): Linear(in_features=640, out_features=640, bias=False)
                (to_out): Module(
                  (0): Linear(in_features=640, out_features=640, bias=True)
                  (1): Dropout(p=0.0, inplace=False)
                )
              )
              (norm2): LayerNorm((640,), eps=1e-05, elementwise_affine=True)
              (attn2): Module(
                (to_q): Linear(in_features=640, out_features=640, bias=False)
                (to_k): Linear(in_features=2048, out_features=640, bias=False)
                (to_v): Linear(in_features=2048, out_features=640, bias=False)
                (to_out): Module(
                  (0): Linear(in_features=640, out_features=640, bias=True)
                  (1): Dropout(p=0.0, inplace=False)
                )
              )
              (norm3): LayerNorm((640,), eps=1e-05, elementwise_affine=True)
              (ff): Module(
                (net): Module(
                  (0): Module(
                    (proj): Linear(in_features=640, out_features=5120, bias=True)
                  )
                  (1): Dropout(p=0.0, inplace=False)
                  (2): Linear(in_features=2560, out_features=640, bias=True)
                )
              )
            )
            (1): Module(
              (norm1): LayerNorm((640,), eps=1e-05, elementwise_affine=True)
              (attn1): Module(
                (to_q): Linear(in_features=640, out_features=640, bias=False)
                (to_k): Linear(in_features=640, out_features=640, bias=False)
                (to_v): Linear(in_features=640, out_features=640, bias=False)
                (to_out): Module(
                  (0): Linear(in_features=640, out_features=640, bias=True)
                  (1): Dropout(p=0.0, inplace=False)
                )
              )
              (norm2): LayerNorm((640,), eps=1e-05, elementwise_affine=True)
              (attn2): Module(
                (to_q): Linear(in_features=640, out_features=640, bias=False)
                (to_k): Linear(in_features=2048, out_features=640, bias=False)
                (to_v): Linear(in_features=2048, out_features=640, bias=False)
                (to_out): Module(
                  (0): Linear(in_features=640, out_features=640, bias=True)
                  (1): Dropout(p=0.0, inplace=False)
                )
              )
              (norm3): LayerNorm((640,), eps=1e-05, elementwise_affine=True)
              (ff): Module(
                (net): Module(
                  (0): Module(
                    (proj): Linear(in_features=640, out_features=5120, bias=True)
                  )
                  (1): Dropout(p=0.0, inplace=False)
                  (2): Linear(in_features=2560, out_features=640, bias=True)
                )
              )
            )
          )
          (proj_out): Linear(in_features=640, out_features=640, bias=True)
        )
      )
      (upsamplers): Module(
        (0): Module(
          (conv): Conv2d(640, 640, kernel_size=(3, 3), stride=(1, 1), padding=(1, 1))
        )
      )
    )
    (2): Module(
      (resnets): Module(
        (0): Module(
          (norm1): GroupNorm(32, 960, eps=1e-05, affine=True)
          (nonlinearity): SiLU()
          (conv1): Conv2d(960, 320, kernel_size=(3, 3), stride=(1, 1), padding=(1, 1))
          (time_emb_proj): Linear(in_features=1280, out_features=320, bias=True)
          (norm2): GroupNorm(32, 320, eps=1e-05, affine=True)
          (dropout): Dropout(p=0.0, inplace=False)
          (conv2): Conv2d(320, 320, kernel_size=(3, 3), stride=(1, 1), padding=(1, 1))
          (conv_shortcut): Conv2d(960, 320, kernel_size=(1, 1), stride=(1, 1))
        )
        (1): Module(
          (norm1): GroupNorm(32, 640, eps=1e-05, affine=True)
          (nonlinearity): SiLU()
          (conv1): Conv2d(640, 320, kernel_size=(3, 3), stride=(1, 1), padding=(1, 1))
          (time_emb_proj): Linear(in_features=1280, out_features=320, bias=True)
          (norm2): GroupNorm(32, 320, eps=1e-05, affine=True)
          (dropout): Dropout(p=0.0, inplace=False)
          (conv2): Conv2d(320, 320, kernel_size=(3, 3), stride=(1, 1), padding=(1, 1))
          (conv_shortcut): Conv2d(640, 320, kernel_size=(1, 1), stride=(1, 1))
        )
        (2): Module(
          (norm1): GroupNorm(32, 640, eps=1e-05, affine=True)
          (nonlinearity): SiLU()
          (conv1): Conv2d(640, 320, kernel_size=(3, 3), stride=(1, 1), padding=(1, 1))
          (time_emb_proj): Linear(in_features=1280, out_features=320, bias=True)
          (norm2): GroupNorm(32, 320, eps=1e-05, affine=True)
          (dropout): Dropout(p=0.0, inplace=False)
          (conv2): Conv2d(320, 320, kernel_size=(3, 3), stride=(1, 1), padding=(1, 1))
          (conv_shortcut): Conv2d(640, 320, kernel_size=(1, 1), stride=(1, 1))
        )
      )
    )
  )
  (conv_norm_out): GroupNorm(32, 320, eps=1e-05, affine=True)
  (conv_act): SiLU()
  (conv_out): Conv2d(320, 4, kernel_size=(3, 3), stride=(1, 1), padding=(1, 1))
)



def forward(self, sample, timesteps, encoder_hidden_states, added_cond_kwargs, **kwargs):
    _kwargs = kwargs
    getattr_1 = sample.shape
    getitem = getattr_1[0];  getattr_1 = None
    expand = timesteps.expand(getitem);  timesteps = getitem = None
    getattr_2 = expand.shape
    _tensor_constant0 = self._tensor_constant0
    getattr_3 = expand.device
…
    up_blocks_2_resnets_2_conv2 = getattr(getattr(self.up_blocks, "2").resnets, "2").conv2(up_blocks_2_resnets_2_dropout);  up_blocks_2_resnets_2_dropout = None
    up_blocks_2_resnets_2_conv_shortcut = getattr(getattr(self.up_blocks, "2").resnets, "2").conv_shortcut(cat_10);  cat_10 = None
    add_255 = up_blocks_2_resnets_2_conv_shortcut + up_blocks_2_resnets_2_conv2;  up_blocks_2_resnets_2_conv_shortcut = up_blocks_2_resnets_2_conv2 = None
    conv_norm_out = self.conv_norm_out(add_255);  add_255 = None
    conv_act = self.conv_act(conv_norm_out);  conv_norm_out = None
    conv_out = self.conv_out(conv_act);  conv_act = None
    return [conv_out]
    
# To see more debug info, please use `graph_module.print_readable()`
Module(
  (linear_1): Linear(in_features=320, out_features=1280, bias=True)
  (act): SiLU()
  (linear_2): Linear(in_features=1280, out_features=1280, bias=True)
)
Linear(in_features=320, out_features=1280, bias=True)
SiLU()
Linear(in_features=1280, out_features=1280, bias=True)
Module(
  (linear_1): Linear(in_features=2816, out_features=1280, bias=True)
  (act): SiLU()
  (linear_2): Linear(in_features=1280, out_features=1280, bias=True)
)
Linear(in_features=2816, out_features=1280, bias=True)
SiLU()
Linear(in_features=1280, out_features=1280, bias=True)
Conv2d(4, 320, kernel_size=(3, 3), stride=(1, 1), padding=(1, 1))
Module(
  (0): Module(
    (resnets): Module(
      (0): Module(
        (norm1): GroupNorm(32, 320, eps=1e-05, affine=True)
        (nonlinearity): SiLU()
        (conv1): Conv2d(320, 320, kernel_size=(3, 3), stride=(1, 1), padding=(1, 1))
        (time_emb_proj): Linear(in_features=1280, out_features=320, bias=True)
        (norm2): GroupNorm(32, 320, eps=1e-05, affine=True)
        (dropout): Dropout(p=0.0, inplace=False)
        (conv2): Conv2d(320, 320, kernel_size=(3, 3), stride=(1, 1), padding=(1, 1))
      )
      (1): Module(
        (norm1): GroupNorm(32, 320, eps=1e-05, affine=True)
        (nonlinearity): SiLU()
        (conv1): Conv2d(320, 320, kernel_size=(3, 3), stride=(1, 1), padding=(1, 1))
        (time_emb_proj): Linear(in_features=1280, out_features=320, bias=True)
        (norm2): GroupNorm(32, 320, eps=1e-05, affine=True)
        (dropout): Dropout(p=0.0, inplace=False)
        (conv2): Conv2d(320, 320, kernel_size=(3, 3), stride=(1, 1), padding=(1, 1))
      )
    )
    (downsamplers): Module(
      (0): Module(
        (conv): Conv2d(320, 320, kernel_size=(3, 3), stride=(2, 2), padding=(1, 1))
      )
    )
  )
  (1): Module(
    (resnets): Module(
      (0): Module(
        (norm1): GroupNorm(32, 320, eps=1e-05, affine=True)
        (nonlinearity): SiLU()
        (conv1): Conv2d(320, 640, kernel_size=(3, 3), stride=(1, 1), padding=(1, 1))
        (time_emb_proj): Linear(in_features=1280, out_features=640, bias=True)
        (norm2): GroupNorm(32, 640, eps=1e-05, affine=True)
        (dropout): Dropout(p=0.0, inplace=False)
        (conv2): Conv2d(640, 640, kernel_size=(3, 3), stride=(1, 1), padding=(1, 1))
        (conv_shortcut): Conv2d(320, 640, kernel_size=(1, 1), stride=(1, 1))
      )
      (1): Module(
        (norm1): GroupNorm(32, 640, eps=1e-05, affine=True)
        (nonlinearity): SiLU()
        (conv1): Conv2d(640, 640, kernel_size=(3, 3), stride=(1, 1), padding=(1, 1))
        (time_emb_proj): Linear(in_features=1280, out_features=640, bias=True)
        (norm2): GroupNorm(32, 640, eps=1e-05, affine=True)
        (dropout): Dropout(p=0.0, inplace=False)
        (conv2): Conv2d(640, 640, kernel_size=(3, 3), stride=(1, 1), padding=(1, 1))
      )
    )
    (attentions): Module(
      (0): Module(
        (norm): GroupNorm(32, 640, eps=1e-06, affine=True)
        (proj_in): Linear(in_features=640, out_features=640, bias=True)
        (transformer_blocks): Module(
          (0): Module(
            (norm1): LayerNorm((640,), eps=1e-05, elementwise_affine=True)
            (attn1): Module(
              (to_q): Linear(in_features=640, out_features=640, bias=False)
              (to_k): Linear(in_features=640, out_features=640, bias=False)
              (to_v): Linear(in_features=640, out_features=640, bias=False)
              (to_out): Module(
                (0): Linear(in_features=640, out_features=640, bias=True)
                (1): Dropout(p=0.0, inplace=False)
              )
            )
            (norm2): LayerNorm((640,), eps=1e-05, elementwise_affine=True)
            (attn2): Module(
              (to_q): Linear(in_features=640, out_features=640, bias=False)
              (to_k): Linear(in_features=2048, out_features=640, bias=False)
              (to_v): Linear(in_features=2048, out_features=640, bias=False)
              (to_out): Module(
                (0): Linear(in_features=640, out_features=640, bias=True)
                (1): Dropout(p=0.0, inplace=False)
              )
            )
            (norm3): LayerNorm((640,), eps=1e-05, elementwise_affine=True)
            (ff): Module(
              (net): Module(
                (0): Module(
                  (proj): Linear(in_features=640, out_features=5120, bias=True)
                )
                (1): Dropout(p=0.0, inplace=False)
                (2): Linear(in_features=2560, out_features=640, bias=True)
              )
            )
          )
          (1): Module(
            (norm1): LayerNorm((640,), eps=1e-05, elementwise_affine=True)
            (attn1): Module(
              (to_q): Linear(in_features=640, out_features=640, bias=False)
              (to_k): Linear(in_features=640, out_features=640, bias=False)
              (to_v): Linear(in_features=640, out_features=640, bias=False)
              (to_out): Module(
                (0): Linear(in_features=640, out_features=640, bias=True)
                (1): Dropout(p=0.0, inplace=False)
              )
            )
            (norm2): LayerNorm((640,), eps=1e-05, elementwise_affine=True)
            (attn2): Module(
              (to_q): Linear(in_features=640, out_features=640, bias=False)
              (to_k): Linear(in_features=2048, out_features=640, bias=False)
              (to_v): Linear(in_features=2048, out_features=640, bias=False)
              (to_out): Module(
                (0): Linear(in_features=640, out_features=640, bias=True)
                (1): Dropout(p=0.0, inplace=False)
              )
            )
            (norm3): LayerNorm((640,), eps=1e-05, elementwise_affine=True)
            (ff): Module(
              (net): Module(
                (0): Module(
                  (proj): Linear(in_features=640, out_features=5120, bias=True)
                )
                (1): Dropout(p=0.0, inplace=False)
                (2): Linear(in_features=2560, out_features=640, bias=True)
              )
            )
          )
        )
        (proj_out): Linear(in_features=640, out_features=640, bias=True)
      )
      (1): Module(
        (norm): GroupNorm(32, 640, eps=1e-06, affine=True)
        (proj_in): Linear(in_features=640, out_features=640, bias=True)
        (transformer_blocks): Module(
          (0): Module(
            (norm1): LayerNorm((640,), eps=1e-05, elementwise_affine=True)
            (attn1): Module(
              (to_q): Linear(in_features=640, out_features=640, bias=False)
              (to_k): Linear(in_features=640, out_features=640, bias=False)
              (to_v): Linear(in_features=640, out_features=640, bias=False)
              (to_out): Module(
                (0): Linear(in_features=640, out_features=640, bias=True)
                (1): Dropout(p=0.0, inplace=False)
              )
            )
            (norm2): LayerNorm((640,), eps=1e-05, elementwise_affine=True)
            (attn2): Module(
              (to_q): Linear(in_features=640, out_features=640, bias=False)
              (to_k): Linear(in_features=2048, out_features=640, bias=False)
              (to_v): Linear(in_features=2048, out_features=640, bias=False)
              (to_out): Module(
                (0): Linear(in_features=640, out_features=640, bias=True)
                (1): Dropout(p=0.0, inplace=False)
              )
            )
            (norm3): LayerNorm((640,), eps=1e-05, elementwise_affine=True)
            (ff): Module(
              (net): Module(
                (0): Module(
                  (proj): Linear(in_features=640, out_features=5120, bias=True)
                )
                (1): Dropout(p=0.0, inplace=False)
                (2): Linear(in_features=2560, out_features=640, bias=True)
              )
            )
          )
          (1): Module(
            (norm1): LayerNorm((640,), eps=1e-05, elementwise_affine=True)
            (attn1): Module(
              (to_q): Linear(in_features=640, out_features=640, bias=False)
              (to_k): Linear(in_features=640, out_features=640, bias=False)
              (to_v): Linear(in_features=640, out_features=640, bias=False)
              (to_out): Module(
                (0): Linear(in_features=640, out_features=640, bias=True)
                (1): Dropout(p=0.0, inplace=False)
              )
            )
            (norm2): LayerNorm((640,), eps=1e-05, elementwise_affine=True)
            (attn2): Module(
              (to_q): Linear(in_features=640, out_features=640, bias=False)
              (to_k): Linear(in_features=2048, out_features=640, bias=False)
              (to_v): Linear(in_features=2048, out_features=640, bias=False)
              (to_out): Module(
                (0): Linear(in_features=640, out_features=640, bias=True)
                (1): Dropout(p=0.0, inplace=False)
              )
            )
            (norm3): LayerNorm((640,), eps=1e-05, elementwise_affine=True)
            (ff): Module(
              (net): Module(
                (0): Module(
                  (proj): Linear(in_features=640, out_features=5120, bias=True)
                )
                (1): Dropout(p=0.0, inplace=False)
                (2): Linear(in_features=2560, out_features=640, bias=True)
              )
            )
          )
        )
        (proj_out): Linear(in_features=640, out_features=640, bias=True)
      )
    )
    (downsamplers): Module(
      (0): Module(
        (conv): Conv2d(640, 640, kernel_size=(3, 3), stride=(2, 2), padding=(1, 1))
      )
    )
  )
  (2): Module(
    (resnets): Module(
      (0): Module(
        (norm1): GroupNorm(32, 640, eps=1e-05, affine=True)
        (nonlinearity): SiLU()
        (conv1): Conv2d(640, 1280, kernel_size=(3, 3), stride=(1, 1), padding=(1, 1))
        (time_emb_proj): Linear(in_features=1280, out_features=1280, bias=True)
        (norm2): GroupNorm(32, 1280, eps=1e-05, affine=True)
        (dropout): Dropout(p=0.0, inplace=False)
        (conv2): Conv2d(1280, 1280, kernel_size=(3, 3), stride=(1, 1), padding=(1, 1))
        (conv_shortcut): Conv2d(640, 1280, kernel_size=(1, 1), stride=(1, 1))
      )
      (1): Module(
        (norm1): GroupNorm(32, 1280, eps=1e-05, affine=True)
        (nonlinearity): SiLU()
        (conv1): Conv2d(1280, 1280, kernel_size=(3, 3), stride=(1, 1), padding=(1, 1))
        (time_emb_proj): Linear(in_features=1280, out_features=1280, bias=True)
        (norm2): GroupNorm(32, 1280, eps=1e-05, affine=True)
        (dropout): Dropout(p=0.0, inplace=False)
        (conv2): Conv2d(1280, 1280, kernel_size=(3, 3), stride=(1, 1), padding=(1, 1))
      )
    )
    (attentions): Module(
      (0): Module(
        (norm): GroupNorm(32, 1280, eps=1e-06, affine=True)
        (proj_in): Linear(in_features=1280, out_features=1280, bias=True)
        (transformer_blocks): Module(
          (0): Module(
            (norm1): LayerNorm((1280,), eps=1e-05, elementwise_affine=True)
            (attn1): Module(
              (to_q): Linear(in_features=1280, out_features=1280, bias=False)
              (to_k): Linear(in_features=1280, out_features=1280, bias=False)
              (to_v): Linear(in_features=1280, out_features=1280, bias=False)
              (to_out): Module(
                (0): Linear(in_features=1280, out_features=1280, bias=True)
                (1): Dropout(p=0.0, inplace=False)
              )
            )
            (norm2): LayerNorm((1280,), eps=1e-05, elementwise_affine=True)
            (attn2): Module(
              (to_q): Linear(in_features=1280, out_features=1280, bias=False)
              (to_k): Linear(in_features=2048, out_features=1280, bias=False)
              (to_v): Linear(in_features=2048, out_features=1280, bias=False)
              (to_out): Module(
                (0): Linear(in_features=1280, out_features=1280, bias=True)
                (1): Dropout(p=0.0, inplace=False)
              )
            )
            (norm3): LayerNorm((1280,), eps=1e-05, elementwise_affine=True)
            (ff): Module(
              (net): Module(
                (0): Module(
                  (proj): Linear(in_features=1280, out_features=10240, bias=True)
                )
                (1): Dropout(p=0.0, inplace=False)
                (2): Linear(in_features=5120, out_features=1280, bias=True)
              )
            )
          )
          (1): Module(
            (norm1): LayerNorm((1280,), eps=1e-05, elementwise_affine=True)
            (attn1): Module(
              (to_q): Linear(in_features=1280, out_features=1280, bias=False)
              (to_k): Linear(in_features=1280, out_features=1280, bias=False)
              (to_v): Linear(in_features=1280, out_features=1280, bias=False)
              (to_out): Module(
                (0): Linear(in_features=1280, out_features=1280, bias=True)
                (1): Dropout(p=0.0, inplace=False)
              )
            )
            (norm2): LayerNorm((1280,), eps=1e-05, elementwise_affine=True)
            (attn2): Module(
              (to_q): Linear(in_features=1280, out_features=1280, bias=False)
              (to_k): Linear(in_features=2048, out_features=1280, bias=False)
              (to_v): Linear(in_features=2048, out_features=1280, bias=False)
              (to_out): Module(
                (0): Linear(in_features=1280, out_features=1280, bias=True)
                (1): Dropout(p=0.0, inplace=False)
              )
            )
            (norm3): LayerNorm((1280,), eps=1e-05, elementwise_affine=True)
            (ff): Module(
              (net): Module(
                (0): Module(
                  (proj): Linear(in_features=1280, out_features=10240, bias=True)
                )
                (1): Dropout(p=0.0, inplace=False)
                (2): Linear(in_features=5120, out_features=1280, bias=True)
              )
            )
          )
          (2): Module(
            (norm1): LayerNorm((1280,), eps=1e-05, elementwise_affine=True)
            (attn1): Module(
              (to_q): Linear(in_features=1280, out_features=1280, bias=False)
              (to_k): Linear(in_features=1280, out_features=1280, bias=False)
              (to_v): Linear(in_features=1280, out_features=1280, bias=False)
              (to_out): Module(
                (0): Linear(in_features=1280, out_features=1280, bias=True)
                (1): Dropout(p=0.0, inplace=False)
              )
            )
            (norm2): LayerNorm((1280,), eps=1e-05, elementwise_affine=True)
            (attn2): Module(
              (to_q): Linear(in_features=1280, out_features=1280, bias=False)
              (to_k): Linear(in_features=2048, out_features=1280, bias=False)
              (to_v): Linear(in_features=2048, out_features=1280, bias=False)
              (to_out): Module(
                (0): Linear(in_features=1280, out_features=1280, bias=True)
                (1): Dropout(p=0.0, inplace=False)
              )
            )
            (norm3): LayerNorm((1280,), eps=1e-05, elementwise_affine=True)
            (ff): Module(
              (net): Module(
                (0): Module(
                  (proj): Linear(in_features=1280, out_features=10240, bias=True)
                )
                (1): Dropout(p=0.0, inplace=False)
                (2): Linear(in_features=5120, out_features=1280, bias=True)
              )
            )
          )
          (3): Module(
            (norm1): LayerNorm((1280,), eps=1e-05, elementwise_affine=True)
            (attn1): Module(
              (to_q): Linear(in_features=1280, out_features=1280, bias=False)
              (to_k): Linear(in_features=1280, out_features=1280, bias=False)
              (to_v): Linear(in_features=1280, out_features=1280, bias=False)
              (to_out): Module(
                (0): Linear(in_features=1280, out_features=1280, bias=True)
                (1): Dropout(p=0.0, inplace=False)
              )
            )
            (norm2): LayerNorm((1280,), eps=1e-05, elementwise_affine=True)
            (attn2): Module(
              (to_q): Linear(in_features=1280, out_features=1280, bias=False)
              (to_k): Linear(in_features=2048, out_features=1280, bias=False)
              (to_v): Linear(in_features=2048, out_features=1280, bias=False)
              (to_out): Module(
                (0): Linear(in_features=1280, out_features=1280, bias=True)
                (1): Dropout(p=0.0, inplace=False)
              )
            )
            (norm3): LayerNorm((1280,), eps=1e-05, elementwise_affine=True)
            (ff): Module(
              (net): Module(
                (0): Module(
                  (proj): Linear(in_features=1280, out_features=10240, bias=True)
                )
                (1): Dropout(p=0.0, inplace=False)
                (2): Linear(in_features=5120, out_features=1280, bias=True)
              )
            )
          )
          (4): Module(
            (norm1): LayerNorm((1280,), eps=1e-05, elementwise_affine=True)
            (attn1): Module(
              (to_q): Linear(in_features=1280, out_features=1280, bias=False)
              (to_k): Linear(in_features=1280, out_features=1280, bias=False)
              (to_v): Linear(in_features=1280, out_features=1280, bias=False)
              (to_out): Module(
                (0): Linear(in_features=1280, out_features=1280, bias=True)
                (1): Dropout(p=0.0, inplace=False)
              )
            )
            (norm2): LayerNorm((1280,), eps=1e-05, elementwise_affine=True)
            (attn2): Module(
              (to_q): Linear(in_features=1280, out_features=1280, bias=False)
              (to_k): Linear(in_features=2048, out_features=1280, bias=False)
              (to_v): Linear(in_features=2048, out_features=1280, bias=False)
              (to_out): Module(
                (0): Linear(in_features=1280, out_features=1280, bias=True)
                (1): Dropout(p=0.0, inplace=False)
              )
            )
            (norm3): LayerNorm((1280,), eps=1e-05, elementwise_affine=True)
            (ff): Module(
              (net): Module(
                (0): Module(
                  (proj): Linear(in_features=1280, out_features=10240, bias=True)
                )
                (1): Dropout(p=0.0, inplace=False)
                (2): Linear(in_features=5120, out_features=1280, bias=True)
              )
            )
          )
          (5): Module(
            (norm1): LayerNorm((1280,), eps=1e-05, elementwise_affine=True)
            (attn1): Module(
              (to_q): Linear(in_features=1280, out_features=1280, bias=False)
              (to_k): Linear(in_features=1280, out_features=1280, bias=False)
              (to_v): Linear(in_features=1280, out_features=1280, bias=False)
              (to_out): Module(
                (0): Linear(in_features=1280, out_features=1280, bias=True)
                (1): Dropout(p=0.0, inplace=False)
              )
            )
            (norm2): LayerNorm((1280,), eps=1e-05, elementwise_affine=True)
            (attn2): Module(
              (to_q): Linear(in_features=1280, out_features=1280, bias=False)
              (to_k): Linear(in_features=2048, out_features=1280, bias=False)
              (to_v): Linear(in_features=2048, out_features=1280, bias=False)
              (to_out): Module(
                (0): Linear(in_features=1280, out_features=1280, bias=True)
                (1): Dropout(p=0.0, inplace=False)
              )
            )
            (norm3): LayerNorm((1280,), eps=1e-05, elementwise_affine=True)
            (ff): Module(
              (net): Module(
                (0): Module(
                  (proj): Linear(in_features=1280, out_features=10240, bias=True)
                )
                (1): Dropout(p=0.0, inplace=False)
                (2): Linear(in_features=5120, out_features=1280, bias=True)
              )
            )
          )
          (6): Module(
            (norm1): LayerNorm((1280,), eps=1e-05, elementwise_affine=True)
            (attn1): Module(
              (to_q): Linear(in_features=1280, out_features=1280, bias=False)
              (to_k): Linear(in_features=1280, out_features=1280, bias=False)
              (to_v): Linear(in_features=1280, out_features=1280, bias=False)
              (to_out): Module(
                (0): Linear(in_features=1280, out_features=1280, bias=True)
                (1): Dropout(p=0.0, inplace=False)
              )
            )
            (norm2): LayerNorm((1280,), eps=1e-05, elementwise_affine=True)
            (attn2): Module(
              (to_q): Linear(in_features=1280, out_features=1280, bias=False)
              (to_k): Linear(in_features=2048, out_features=1280, bias=False)
              (to_v): Linear(in_features=2048, out_features=1280, bias=False)
              (to_out): Module(
                (0): Linear(in_features=1280, out_features=1280, bias=True)
                (1): Dropout(p=0.0, inplace=False)
              )
            )
            (norm3): LayerNorm((1280,), eps=1e-05, elementwise_affine=True)
            (ff): Module(
              (net): Module(
                (0): Module(
                  (proj): Linear(in_features=1280, out_features=10240, bias=True)
                )
                (1): Dropout(p=0.0, inplace=False)
                (2): Linear(in_features=5120, out_features=1280, bias=True)
              )
            )
          )
          (7): Module(
            (norm1): LayerNorm((1280,), eps=1e-05, elementwise_affine=True)
            (attn1): Module(
              (to_q): Linear(in_features=1280, out_features=1280, bias=False)
              (to_k): Linear(in_features=1280, out_features=1280, bias=False)
              (to_v): Linear(in_features=1280, out_features=1280, bias=False)
              (to_out): Module(
                (0): Linear(in_features=1280, out_features=1280, bias=True)
                (1): Dropout(p=0.0, inplace=False)
              )
            )
            (norm2): LayerNorm((1280,), eps=1e-05, elementwise_affine=True)
            (attn2): Module(
              (to_q): Linear(in_features=1280, out_features=1280, bias=False)
              (to_k): Linear(in_features=2048, out_features=1280, bias=False)
              (to_v): Linear(in_features=2048, out_features=1280, bias=False)
              (to_out): Module(
                (0): Linear(in_features=1280, out_features=1280, bias=True)
                (1): Dropout(p=0.0, inplace=False)
              )
            )
            (norm3): LayerNorm((1280,), eps=1e-05, elementwise_affine=True)
            (ff): Module(
              (net): Module(
                (0): Module(
                  (proj): Linear(in_features=1280, out_features=10240, bias=True)
                )
                (1): Dropout(p=0.0, inplace=False)
                (2): Linear(in_features=5120, out_features=1280, bias=True)
              )
            )
          )
          (8): Module(
            (norm1): LayerNorm((1280,), eps=1e-05, elementwise_affine=True)
            (attn1): Module(
              (to_q): Linear(in_features=1280, out_features=1280, bias=False)
              (to_k): Linear(in_features=1280, out_features=1280, bias=False)
              (to_v): Linear(in_features=1280, out_features=1280, bias=False)
              (to_out): Module(
                (0): Linear(in_features=1280, out_features=1280, bias=True)
                (1): Dropout(p=0.0, inplace=False)
              )
            )
            (norm2): LayerNorm((1280,), eps=1e-05, elementwise_affine=True)
            (attn2): Module(
              (to_q): Linear(in_features=1280, out_features=1280, bias=False)
              (to_k): Linear(in_features=2048, out_features=1280, bias=False)
              (to_v): Linear(in_features=2048, out_features=1280, bias=False)
              (to_out): Module(
                (0): Linear(in_features=1280, out_features=1280, bias=True)
                (1): Dropout(p=0.0, inplace=False)
              )
            )
            (norm3): LayerNorm((1280,), eps=1e-05, elementwise_affine=True)
            (ff): Module(
              (net): Module(
                (0): Module(
                  (proj): Linear(in_features=1280, out_features=10240, bias=True)
                )
                (1): Dropout(p=0.0, inplace=False)
                (2): Linear(in_features=5120, out_features=1280, bias=True)
              )
            )
          )
          (9): Module(
            (norm1): LayerNorm((1280,), eps=1e-05, elementwise_affine=True)
            (attn1): Module(
              (to_q): Linear(in_features=1280, out_features=1280, bias=False)
              (to_k): Linear(in_features=1280, out_features=1280, bias=False)
              (to_v): Linear(in_features=1280, out_features=1280, bias=False)
              (to_out): Module(
                (0): Linear(in_features=1280, out_features=1280, bias=True)
                (1): Dropout(p=0.0, inplace=False)
              )
            )
            (norm2): LayerNorm((1280,), eps=1e-05, elementwise_affine=True)
            (attn2): Module(
              (to_q): Linear(in_features=1280, out_features=1280, bias=False)
              (to_k): Linear(in_features=2048, out_features=1280, bias=False)
…
        (norm3): LayerNorm((640,), eps=1e-05, elementwise_affine=True)
        (ff): Module(
          (net): Module(
            (0): Module(
              (proj): Linear(in_features=640, out_features=5120, bias=True)
            )
            (1): Dropout(p=0.0, inplace=False)
            (2): Linear(in_features=2560, out_features=640, bias=True)
          )
        )
      )
      (1): Module(
        (norm1): LayerNorm((640,), eps=1e-05, elementwise_affine=True)
        (attn1): Module(
          (to_q): Linear(in_features=640, out_features=640, bias=False)
          (to_k): Linear(in_features=640, out_features=640, bias=False)
          (to_v): Linear(in_features=640, out_features=640, bias=False)
          (to_out): Module(
            (0): Linear(in_features=640, out_features=640, bias=True)
            (1): Dropout(p=0.0, inplace=False)
          )
        )
        (norm2): LayerNorm((640,), eps=1e-05, elementwise_affine=True)
        (attn2): Module(
          (to_q): Linear(in_features=640, out_features=640, bias=False)
          (to_k): Linear(in_features=2048, out_features=640, bias=False)
          (to_v): Linear(in_features=2048, out_features=640, bias=False)
          (to_out): Module(
            (0): Linear(in_features=640, out_features=640, bias=True)
            (1): Dropout(p=0.0, inplace=False)
          )
        )
        (norm3): LayerNorm((640,), eps=1e-05, elementwise_affine=True)
        (ff): Module(
          (net): Module(
            (0): Module(
              (proj): Linear(in_features=640, out_features=5120, bias=True)
            )
            (1): Dropout(p=0.0, inplace=False)
            (2): Linear(in_features=2560, out_features=640, bias=True)
          )
        )
      )
    )
    (proj_out): Linear(in_features=640, out_features=640, bias=True)
  )
  (1): Module(
    (norm): GroupNorm(32, 640, eps=1e-06, affine=True)
    (proj_in): Linear(in_features=640, out_features=640, bias=True)
    (transformer_blocks): Module(
      (0): Module(
        (norm1): LayerNorm((640,), eps=1e-05, elementwise_affine=True)
        (attn1): Module(
          (to_q): Linear(in_features=640, out_features=640, bias=False)
          (to_k): Linear(in_features=640, out_features=640, bias=False)
          (to_v): Linear(in_features=640, out_features=640, bias=False)
          (to_out): Module(
            (0): Linear(in_features=640, out_features=640, bias=True)
            (1): Dropout(p=0.0, inplace=False)
          )
        )
        (norm2): LayerNorm((640,), eps=1e-05, elementwise_affine=True)
        (attn2): Module(
          (to_q): Linear(in_features=640, out_features=640, bias=False)
          (to_k): Linear(in_features=2048, out_features=640, bias=False)
          (to_v): Linear(in_features=2048, out_features=640, bias=False)
          (to_out): Module(
            (0): Linear(in_features=640, out_features=640, bias=True)
            (1): Dropout(p=0.0, inplace=False)
          )
        )
        (norm3): LayerNorm((640,), eps=1e-05, elementwise_affine=True)
        (ff): Module(
          (net): Module(
            (0): Module(
              (proj): Linear(in_features=640, out_features=5120, bias=True)
            )
            (1): Dropout(p=0.0, inplace=False)
            (2): Linear(in_features=2560, out_features=640, bias=True)
          )
        )
      )
      (1): Module(
        (norm1): LayerNorm((640,), eps=1e-05, elementwise_affine=True)
        (attn1): Module(
          (to_q): Linear(in_features=640, out_features=640, bias=False)
          (to_k): Linear(in_features=640, out_features=640, bias=False)
          (to_v): Linear(in_features=640, out_features=640, bias=False)
          (to_out): Module(
            (0): Linear(in_features=640, out_features=640, bias=True)
            (1): Dropout(p=0.0, inplace=False)
          )
        )
        (norm2): LayerNorm((640,), eps=1e-05, elementwise_affine=True)
        (attn2): Module(
          (to_q): Linear(in_features=640, out_features=640, bias=False)
          (to_k): Linear(in_features=2048, out_features=640, bias=False)
          (to_v): Linear(in_features=2048, out_features=640, bias=False)
          (to_out): Module(
            (0): Linear(in_features=640, out_features=640, bias=True)
            (1): Dropout(p=0.0, inplace=False)
          )
        )
        (norm3): LayerNorm((640,), eps=1e-05, elementwise_affine=True)
        (ff): Module(
          (net): Module(
            (0): Module(
              (proj): Linear(in_features=640, out_features=5120, bias=True)
            )
            (1): Dropout(p=0.0, inplace=False)
            (2): Linear(in_features=2560, out_features=640, bias=True)
          )
        )
      )
    )
    (proj_out): Linear(in_features=640, out_features=640, bias=True)
  )
  (2): Module(
    (norm): GroupNorm(32, 640, eps=1e-06, affine=True)
    (proj_in): Linear(in_features=640, out_features=640, bias=True)
    (transformer_blocks): Module(
      (0): Module(
        (norm1): LayerNorm((640,), eps=1e-05, elementwise_affine=True)
        (attn1): Module(
          (to_q): Linear(in_features=640, out_features=640, bias=False)
          (to_k): Linear(in_features=640, out_features=640, bias=False)
          (to_v): Linear(in_features=640, out_features=640, bias=False)
          (to_out): Module(
            (0): Linear(in_features=640, out_features=640, bias=True)
            (1): Dropout(p=0.0, inplace=False)
          )
        )
        (norm2): LayerNorm((640,), eps=1e-05, elementwise_affine=True)
        (attn2): Module(
          (to_q): Linear(in_features=640, out_features=640, bias=False)
          (to_k): Linear(in_features=2048, out_features=640, bias=False)
          (to_v): Linear(in_features=2048, out_features=640, bias=False)
          (to_out): Module(
            (0): Linear(in_features=640, out_features=640, bias=True)
            (1): Dropout(p=0.0, inplace=False)
          )
        )
        (norm3): LayerNorm((640,), eps=1e-05, elementwise_affine=True)
        (ff): Module(
          (net): Module(
            (0): Module(
              (proj): Linear(in_features=640, out_features=5120, bias=True)
            )
            (1): Dropout(p=0.0, inplace=False)
            (2): Linear(in_features=2560, out_features=640, bias=True)
          )
        )
      )
      (1): Module(
        (norm1): LayerNorm((640,), eps=1e-05, elementwise_affine=True)
        (attn1): Module(
          (to_q): Linear(in_features=640, out_features=640, bias=False)
          (to_k): Linear(in_features=640, out_features=640, bias=False)
          (to_v): Linear(in_features=640, out_features=640, bias=False)
          (to_out): Module(
            (0): Linear(in_features=640, out_features=640, bias=True)
            (1): Dropout(p=0.0, inplace=False)
          )
        )
        (norm2): LayerNorm((640,), eps=1e-05, elementwise_affine=True)
        (attn2): Module(
          (to_q): Linear(in_features=640, out_features=640, bias=False)
          (to_k): Linear(in_features=2048, out_features=640, bias=False)
          (to_v): Linear(in_features=2048, out_features=640, bias=False)
          (to_out): Module(
            (0): Linear(in_features=640, out_features=640, bias=True)
            (1): Dropout(p=0.0, inplace=False)
          )
        )
        (norm3): LayerNorm((640,), eps=1e-05, elementwise_affine=True)
        (ff): Module(
          (net): Module(
            (0): Module(
              (proj): Linear(in_features=640, out_features=5120, bias=True)
            )
            (1): Dropout(p=0.0, inplace=False)
            (2): Linear(in_features=2560, out_features=640, bias=True)
          )
        )
      )
    )
    (proj_out): Linear(in_features=640, out_features=640, bias=True)
  )
)
Module(
  (norm): GroupNorm(32, 640, eps=1e-06, affine=True)
  (proj_in): Linear(in_features=640, out_features=640, bias=True)
  (transformer_blocks): Module(
    (0): Module(
      (norm1): LayerNorm((640,), eps=1e-05, elementwise_affine=True)
      (attn1): Module(
        (to_q): Linear(in_features=640, out_features=640, bias=False)
        (to_k): Linear(in_features=640, out_features=640, bias=False)
        (to_v): Linear(in_features=640, out_features=640, bias=False)
        (to_out): Module(
          (0): Linear(in_features=640, out_features=640, bias=True)
          (1): Dropout(p=0.0, inplace=False)
        )
      )
      (norm2): LayerNorm((640,), eps=1e-05, elementwise_affine=True)
      (attn2): Module(
        (to_q): Linear(in_features=640, out_features=640, bias=False)
        (to_k): Linear(in_features=2048, out_features=640, bias=False)
        (to_v): Linear(in_features=2048, out_features=640, bias=False)
        (to_out): Module(
          (0): Linear(in_features=640, out_features=640, bias=True)
          (1): Dropout(p=0.0, inplace=False)
        )
      )
      (norm3): LayerNorm((640,), eps=1e-05, elementwise_affine=True)
      (ff): Module(
        (net): Module(
          (0): Module(
            (proj): Linear(in_features=640, out_features=5120, bias=True)
          )
          (1): Dropout(p=0.0, inplace=False)
          (2): Linear(in_features=2560, out_features=640, bias=True)
        )
      )
    )
    (1): Module(
      (norm1): LayerNorm((640,), eps=1e-05, elementwise_affine=True)
      (attn1): Module(
        (to_q): Linear(in_features=640, out_features=640, bias=False)
        (to_k): Linear(in_features=640, out_features=640, bias=False)
        (to_v): Linear(in_features=640, out_features=640, bias=False)
        (to_out): Module(
          (0): Linear(in_features=640, out_features=640, bias=True)
          (1): Dropout(p=0.0, inplace=False)
        )
      )
      (norm2): LayerNorm((640,), eps=1e-05, elementwise_affine=True)
      (attn2): Module(
        (to_q): Linear(in_features=640, out_features=640, bias=False)
        (to_k): Linear(in_features=2048, out_features=640, bias=False)
        (to_v): Linear(in_features=2048, out_features=640, bias=False)
        (to_out): Module(
          (0): Linear(in_features=640, out_features=640, bias=True)
          (1): Dropout(p=0.0, inplace=False)
        )
      )
      (norm3): LayerNorm((640,), eps=1e-05, elementwise_affine=True)
      (ff): Module(
        (net): Module(
          (0): Module(
            (proj): Linear(in_features=640, out_features=5120, bias=True)
          )
          (1): Dropout(p=0.0, inplace=False)
          (2): Linear(in_features=2560, out_features=640, bias=True)
        )
      )
    )
  )
  (proj_out): Linear(in_features=640, out_features=640, bias=True)
)
GroupNorm(32, 640, eps=1e-06, affine=True)
Linear(in_features=640, out_features=640, bias=True)
Module(
  (0): Module(
    (norm1): LayerNorm((640,), eps=1e-05, elementwise_affine=True)
    (attn1): Module(
      (to_q): Linear(in_features=640, out_features=640, bias=False)
      (to_k): Linear(in_features=640, out_features=640, bias=False)
      (to_v): Linear(in_features=640, out_features=640, bias=False)
      (to_out): Module(
        (0): Linear(in_features=640, out_features=640, bias=True)
        (1): Dropout(p=0.0, inplace=False)
      )
    )
    (norm2): LayerNorm((640,), eps=1e-05, elementwise_affine=True)
    (attn2): Module(
      (to_q): Linear(in_features=640, out_features=640, bias=False)
      (to_k): Linear(in_features=2048, out_features=640, bias=False)
      (to_v): Linear(in_features=2048, out_features=640, bias=False)
      (to_out): Module(
        (0): Linear(in_features=640, out_features=640, bias=True)
        (1): Dropout(p=0.0, inplace=False)
      )
    )
    (norm3): LayerNorm((640,), eps=1e-05, elementwise_affine=True)
    (ff): Module(
      (net): Module(
        (0): Module(
          (proj): Linear(in_features=640, out_features=5120, bias=True)
        )
        (1): Dropout(p=0.0, inplace=False)
        (2): Linear(in_features=2560, out_features=640, bias=True)
      )
    )
  )
  (1): Module(
    (norm1): LayerNorm((640,), eps=1e-05, elementwise_affine=True)
    (attn1): Module(
      (to_q): Linear(in_features=640, out_features=640, bias=False)
      (to_k): Linear(in_features=640, out_features=640, bias=False)
      (to_v): Linear(in_features=640, out_features=640, bias=False)
      (to_out): Module(
        (0): Linear(in_features=640, out_features=640, bias=True)
        (1): Dropout(p=0.0, inplace=False)
      )
    )
    (norm2): LayerNorm((640,), eps=1e-05, elementwise_affine=True)
    (attn2): Module(
      (to_q): Linear(in_features=640, out_features=640, bias=False)
      (to_k): Linear(in_features=2048, out_features=640, bias=False)
      (to_v): Linear(in_features=2048, out_features=640, bias=False)
      (to_out): Module(
        (0): Linear(in_features=640, out_features=640, bias=True)
        (1): Dropout(p=0.0, inplace=False)
      )
    )
    (norm3): LayerNorm((640,), eps=1e-05, elementwise_affine=True)
    (ff): Module(
      (net): Module(
        (0): Module(
          (proj): Linear(in_features=640, out_features=5120, bias=True)
        )
        (1): Dropout(p=0.0, inplace=False)
        (2): Linear(in_features=2560, out_features=640, bias=True)
      )
    )
  )
)
Module(
  (norm1): LayerNorm((640,), eps=1e-05, elementwise_affine=True)
  (attn1): Module(
    (to_q): Linear(in_features=640, out_features=640, bias=False)
    (to_k): Linear(in_features=640, out_features=640, bias=False)
    (to_v): Linear(in_features=640, out_features=640, bias=False)
    (to_out): Module(
      (0): Linear(in_features=640, out_features=640, bias=True)
      (1): Dropout(p=0.0, inplace=False)
    )
  )
  (norm2): LayerNorm((640,), eps=1e-05, elementwise_affine=True)
  (attn2): Module(
    (to_q): Linear(in_features=640, out_features=640, bias=False)
    (to_k): Linear(in_features=2048, out_features=640, bias=False)
    (to_v): Linear(in_features=2048, out_features=640, bias=False)
    (to_out): Module(
      (0): Linear(in_features=640, out_features=640, bias=True)
      (1): Dropout(p=0.0, inplace=False)
    )
  )
  (norm3): LayerNorm((640,), eps=1e-05, elementwise_affine=True)
  (ff): Module(
    (net): Module(
      (0): Module(
        (proj): Linear(in_features=640, out_features=5120, bias=True)
      )
      (1): Dropout(p=0.0, inplace=False)
      (2): Linear(in_features=2560, out_features=640, bias=True)
    )
  )
)
LayerNorm((640,), eps=1e-05, elementwise_affine=True)
Module(
  (to_q): Linear(in_features=640, out_features=640, bias=False)
  (to_k): Linear(in_features=640, out_features=640, bias=False)
  (to_v): Linear(in_features=640, out_features=640, bias=False)
  (to_out): Module(
    (0): Linear(in_features=640, out_features=640, bias=True)
    (1): Dropout(p=0.0, inplace=False)
  )
)
Linear(in_features=640, out_features=640, bias=False)
Linear(in_features=640, out_features=640, bias=False)
Linear(in_features=640, out_features=640, bias=False)
Module(
  (0): Linear(in_features=640, out_features=640, bias=True)
  (1): Dropout(p=0.0, inplace=False)
)
Linear(in_features=640, out_features=640, bias=True)
Dropout(p=0.0, inplace=False)
LayerNorm((640,), eps=1e-05, elementwise_affine=True)
Module(
  (to_q): Linear(in_features=640, out_features=640, bias=False)
  (to_k): Linear(in_features=2048, out_features=640, bias=False)
  (to_v): Linear(in_features=2048, out_features=640, bias=False)
  (to_out): Module(
    (0): Linear(in_features=640, out_features=640, bias=True)
    (1): Dropout(p=0.0, inplace=False)
  )
)
Linear(in_features=640, out_features=640, bias=False)
Linear(in_features=2048, out_features=640, bias=False)
Linear(in_features=2048, out_features=640, bias=False)
Module(
  (0): Linear(in_features=640, out_features=640, bias=True)
  (1): Dropout(p=0.0, inplace=False)
)
Linear(in_features=640, out_features=640, bias=True)
Dropout(p=0.0, inplace=False)
LayerNorm((640,), eps=1e-05, elementwise_affine=True)
Module(
  (net): Module(
    (0): Module(
      (proj): Linear(in_features=640, out_features=5120, bias=True)
    )
    (1): Dropout(p=0.0, inplace=False)
    (2): Linear(in_features=2560, out_features=640, bias=True)
  )
)
Module(
  (0): Module(
    (proj): Linear(in_features=640, out_features=5120, bias=True)
  )
  (1): Dropout(p=0.0, inplace=False)
  (2): Linear(in_features=2560, out_features=640, bias=True)
)
Module(
  (proj): Linear(in_features=640, out_features=5120, bias=True)
)
Linear(in_features=640, out_features=5120, bias=True)
Dropout(p=0.0, inplace=False)
Linear(in_features=2560, out_features=640, bias=True)
Module(
  (norm1): LayerNorm((640,), eps=1e-05, elementwise_affine=True)
  (attn1): Module(
    (to_q): Linear(in_features=640, out_features=640, bias=False)
    (to_k): Linear(in_features=640, out_features=640, bias=False)
    (to_v): Linear(in_features=640, out_features=640, bias=False)
    (to_out): Module(
      (0): Linear(in_features=640, out_features=640, bias=True)
      (1): Dropout(p=0.0, inplace=False)
    )
  )
  (norm2): LayerNorm((640,), eps=1e-05, elementwise_affine=True)
  (attn2): Module(
    (to_q): Linear(in_features=640, out_features=640, bias=False)
    (to_k): Linear(in_features=2048, out_features=640, bias=False)
    (to_v): Linear(in_features=2048, out_features=640, bias=False)
    (to_out): Module(
      (0): Linear(in_features=640, out_features=640, bias=True)
      (1): Dropout(p=0.0, inplace=False)
    )
  )
  (norm3): LayerNorm((640,), eps=1e-05, elementwise_affine=True)
  (ff): Module(
    (net): Module(
      (0): Module(
        (proj): Linear(in_features=640, out_features=5120, bias=True)
      )
      (1): Dropout(p=0.0, inplace=False)
      (2): Linear(in_features=2560, out_features=640, bias=True)
    )
  )
)
LayerNorm((640,), eps=1e-05, elementwise_affine=True)
Module(
  (to_q): Linear(in_features=640, out_features=640, bias=False)
  (to_k): Linear(in_features=640, out_features=640, bias=False)
  (to_v): Linear(in_features=640, out_features=640, bias=False)
  (to_out): Module(
    (0): Linear(in_features=640, out_features=640, bias=True)
    (1): Dropout(p=0.0, inplace=False)
  )
)
Linear(in_features=640, out_features=640, bias=False)
Linear(in_features=640, out_features=640, bias=False)
Linear(in_features=640, out_features=640, bias=False)
Module(
  (0): Linear(in_features=640, out_features=640, bias=True)
  (1): Dropout(p=0.0, inplace=False)
)
Linear(in_features=640, out_features=640, bias=True)
Dropout(p=0.0, inplace=False)
LayerNorm((640,), eps=1e-05, elementwise_affine=True)
Module(
  (to_q): Linear(in_features=640, out_features=640, bias=False)
  (to_k): Linear(in_features=2048, out_features=640, bias=False)
  (to_v): Linear(in_features=2048, out_features=640, bias=False)
  (to_out): Module(
    (0): Linear(in_features=640, out_features=640, bias=True)
    (1): Dropout(p=0.0, inplace=False)
  )
)
Linear(in_features=640, out_features=640, bias=False)
Linear(in_features=2048, out_features=640, bias=False)
Linear(in_features=2048, out_features=640, bias=False)
Module(
  (0): Linear(in_features=640, out_features=640, bias=True)
  (1): Dropout(p=0.0, inplace=False)
)
Linear(in_features=640, out_features=640, bias=True)
Dropout(p=0.0, inplace=False)
LayerNorm((640,), eps=1e-05, elementwise_affine=True)
Module(
  (net): Module(
    (0): Module(
      (proj): Linear(in_features=640, out_features=5120, bias=True)
    )
    (1): Dropout(p=0.0, inplace=False)
    (2): Linear(in_features=2560, out_features=640, bias=True)
  )
)
Module(
  (0): Module(
    (proj): Linear(in_features=640, out_features=5120, bias=True)
  )
  (1): Dropout(p=0.0, inplace=False)
  (2): Linear(in_features=2560, out_features=640, bias=True)
)
Module(
  (proj): Linear(in_features=640, out_features=5120, bias=True)
)
Linear(in_features=640, out_features=5120, bias=True)
Dropout(p=0.0, inplace=False)
Linear(in_features=2560, out_features=640, bias=True)
Linear(in_features=640, out_features=640, bias=True)
Module(
  (norm): GroupNorm(32, 640, eps=1e-06, affine=True)
  (proj_in): Linear(in_features=640, out_features=640, bias=True)
  (transformer_blocks): Module(
    (0): Module(
      (norm1): LayerNorm((640,), eps=1e-05, elementwise_affine=True)
      (attn1): Module(
        (to_q): Linear(in_features=640, out_features=640, bias=False)
        (to_k): Linear(in_features=640, out_features=640, bias=False)
        (to_v): Linear(in_features=640, out_features=640, bias=False)
        (to_out): Module(
          (0): Linear(in_features=640, out_features=640, bias=True)
          (1): Dropout(p=0.0, inplace=False)
        )
      )
      (norm2): LayerNorm((640,), eps=1e-05, elementwise_affine=True)
      (attn2): Module(
        (to_q): Linear(in_features=640, out_features=640, bias=False)
        (to_k): Linear(in_features=2048, out_features=640, bias=False)
        (to_v): Linear(in_features=2048, out_features=640, bias=False)
        (to_out): Module(
          (0): Linear(in_features=640, out_features=640, bias=True)
          (1): Dropout(p=0.0, inplace=False)
        )
      )
      (norm3): LayerNorm((640,), eps=1e-05, elementwise_affine=True)
      (ff): Module(
        (net): Module(
          (0): Module(
            (proj): Linear(in_features=640, out_features=5120, bias=True)
          )
          (1): Dropout(p=0.0, inplace=False)
          (2): Linear(in_features=2560, out_features=640, bias=True)
        )
      )
    )
    (1): Module(
      (norm1): LayerNorm((640,), eps=1e-05, elementwise_affine=True)
      (attn1): Module(
        (to_q): Linear(in_features=640, out_features=640, bias=False)
        (to_k): Linear(in_features=640, out_features=640, bias=False)
        (to_v): Linear(in_features=640, out_features=640, bias=False)
        (to_out): Module(
          (0): Linear(in_features=640, out_features=640, bias=True)
          (1): Dropout(p=0.0, inplace=False)
        )
      )
      (norm2): LayerNorm((640,), eps=1e-05, elementwise_affine=True)
      (attn2): Module(
        (to_q): Linear(in_features=640, out_features=640, bias=False)
        (to_k): Linear(in_features=2048, out_features=640, bias=False)
        (to_v): Linear(in_features=2048, out_features=640, bias=False)
        (to_out): Module(
          (0): Linear(in_features=640, out_features=640, bias=True)
          (1): Dropout(p=0.0, inplace=False)
        )
      )
      (norm3): LayerNorm((640,), eps=1e-05, elementwise_affine=True)
      (ff): Module(
        (net): Module(
          (0): Module(
            (proj): Linear(in_features=640, out_features=5120, bias=True)
          )
          (1): Dropout(p=0.0, inplace=False)
          (2): Linear(in_features=2560, out_features=640, bias=True)
        )
      )
    )
  )
  (proj_out): Linear(in_features=640, out_features=640, bias=True)
)
GroupNorm(32, 640, eps=1e-06, affine=True)
Linear(in_features=640, out_features=640, bias=True)
Module(
  (0): Module(
    (norm1): LayerNorm((640,), eps=1e-05, elementwise_affine=True)
    (attn1): Module(
      (to_q): Linear(in_features=640, out_features=640, bias=False)
      (to_k): Linear(in_features=640, out_features=640, bias=False)
      (to_v): Linear(in_features=640, out_features=640, bias=False)
      (to_out): Module(
        (0): Linear(in_features=640, out_features=640, bias=True)
        (1): Dropout(p=0.0, inplace=False)
      )
    )
    (norm2): LayerNorm((640,), eps=1e-05, elementwise_affine=True)
    (attn2): Module(
      (to_q): Linear(in_features=640, out_features=640, bias=False)
      (to_k): Linear(in_features=2048, out_features=640, bias=False)
      (to_v): Linear(in_features=2048, out_features=640, bias=False)
      (to_out): Module(
        (0): Linear(in_features=640, out_features=640, bias=True)
        (1): Dropout(p=0.0, inplace=False)
      )
    )
    (norm3): LayerNorm((640,), eps=1e-05, elementwise_affine=True)
    (ff): Module(
      (net): Module(
        (0): Module(
          (proj): Linear(in_features=640, out_features=5120, bias=True)
        )
        (1): Dropout(p=0.0, inplace=False)
        (2): Linear(in_features=2560, out_features=640, bias=True)
      )
    )
  )
  (1): Module(
    (norm1): LayerNorm((640,), eps=1e-05, elementwise_affine=True)
    (attn1): Module(
      (to_q): Linear(in_features=640, out_features=640, bias=False)
      (to_k): Linear(in_features=640, out_features=640, bias=False)
      (to_v): Linear(in_features=640, out_features=640, bias=False)
      (to_out): Module(
        (0): Linear(in_features=640, out_features=640, bias=True)
        (1): Dropout(p=0.0, inplace=False)
      )
    )
    (norm2): LayerNorm((640,), eps=1e-05, elementwise_affine=True)
    (attn2): Module(
      (to_q): Linear(in_features=640, out_features=640, bias=False)
      (to_k): Linear(in_features=2048, out_features=640, bias=False)
      (to_v): Linear(in_features=2048, out_features=640, bias=False)
      (to_out): Module(
        (0): Linear(in_features=640, out_features=640, bias=True)
        (1): Dropout(p=0.0, inplace=False)
      )
    )
    (norm3): LayerNorm((640,), eps=1e-05, elementwise_affine=True)
    (ff): Module(
      (net): Module(
        (0): Module(
          (proj): Linear(in_features=640, out_features=5120, bias=True)
        )
        (1): Dropout(p=0.0, inplace=False)
        (2): Linear(in_features=2560, out_features=640, bias=True)
      )
    )
  )
)
Module(
  (norm1): LayerNorm((640,), eps=1e-05, elementwise_affine=True)
  (attn1): Module(
    (to_q): Linear(in_features=640, out_features=640, bias=False)
    (to_k): Linear(in_features=640, out_features=640, bias=False)
    (to_v): Linear(in_features=640, out_features=640, bias=False)
    (to_out): Module(
      (0): Linear(in_features=640, out_features=640, bias=True)
      (1): Dropout(p=0.0, inplace=False)
    )
  )
  (norm2): LayerNorm((640,), eps=1e-05, elementwise_affine=True)
  (attn2): Module(
    (to_q): Linear(in_features=640, out_features=640, bias=False)
    (to_k): Linear(in_features=2048, out_features=640, bias=False)
    (to_v): Linear(in_features=2048, out_features=640, bias=False)
    (to_out): Module(
      (0): Linear(in_features=640, out_features=640, bias=True)
      (1): Dropout(p=0.0, inplace=False)
    )
  )
  (norm3): LayerNorm((640,), eps=1e-05, elementwise_affine=True)
  (ff): Module(
    (net): Module(
      (0): Module(
        (proj): Linear(in_features=640, out_features=5120, bias=True)
      )
      (1): Dropout(p=0.0, inplace=False)
      (2): Linear(in_features=2560, out_features=640, bias=True)
    )
  )
)
LayerNorm((640,), eps=1e-05, elementwise_affine=True)
Module(
  (to_q): Linear(in_features=640, out_features=640, bias=False)
  (to_k): Linear(in_features=640, out_features=640, bias=False)
  (to_v): Linear(in_features=640, out_features=640, bias=False)
  (to_out): Module(
    (0): Linear(in_features=640, out_features=640, bias=True)
    (1): Dropout(p=0.0, inplace=False)
  )
)
Linear(in_features=640, out_features=640, bias=False)
Linear(in_features=640, out_features=640, bias=False)
Linear(in_features=640, out_features=640, bias=False)
Module(
  (0): Linear(in_features=640, out_features=640, bias=True)
  (1): Dropout(p=0.0, inplace=False)
)
Linear(in_features=640, out_features=640, bias=True)
Dropout(p=0.0, inplace=False)
LayerNorm((640,), eps=1e-05, elementwise_affine=True)
Module(
  (to_q): Linear(in_features=640, out_features=640, bias=False)
  (to_k): Linear(in_features=2048, out_features=640, bias=False)
  (to_v): Linear(in_features=2048, out_features=640, bias=False)
  (to_out): Module(
    (0): Linear(in_features=640, out_features=640, bias=True)
    (1): Dropout(p=0.0, inplace=False)
  )
)
Linear(in_features=640, out_features=640, bias=False)
Linear(in_features=2048, out_features=640, bias=False)
Linear(in_features=2048, out_features=640, bias=False)
Module(
  (0): Linear(in_features=640, out_features=640, bias=True)
  (1): Dropout(p=0.0, inplace=False)
)
Linear(in_features=640, out_features=640, bias=True)
Dropout(p=0.0, inplace=False)
LayerNorm((640,), eps=1e-05, elementwise_affine=True)
Module(
  (net): Module(
    (0): Module(
      (proj): Linear(in_features=640, out_features=5120, bias=True)
    )
    (1): Dropout(p=0.0, inplace=False)
    (2): Linear(in_features=2560, out_features=640, bias=True)
  )
)
Module(
  (0): Module(
    (proj): Linear(in_features=640, out_features=5120, bias=True)
  )
  (1): Dropout(p=0.0, inplace=False)
  (2): Linear(in_features=2560, out_features=640, bias=True)
)
Module(
  (proj): Linear(in_features=640, out_features=5120, bias=True)
)
Linear(in_features=640, out_features=5120, bias=True)
Dropout(p=0.0, inplace=False)
Linear(in_features=2560, out_features=640, bias=True)
Module(
  (norm1): LayerNorm((640,), eps=1e-05, elementwise_affine=True)
  (attn1): Module(
    (to_q): Linear(in_features=640, out_features=640, bias=False)
    (to_k): Linear(in_features=640, out_features=640, bias=False)
    (to_v): Linear(in_features=640, out_features=640, bias=False)
    (to_out): Module(
      (0): Linear(in_features=640, out_features=640, bias=True)
      (1): Dropout(p=0.0, inplace=False)
    )
  )
  (norm2): LayerNorm((640,), eps=1e-05, elementwise_affine=True)
  (attn2): Module(
    (to_q): Linear(in_features=640, out_features=640, bias=False)
    (to_k): Linear(in_features=2048, out_features=640, bias=False)
    (to_v): Linear(in_features=2048, out_features=640, bias=False)
    (to_out): Module(
      (0): Linear(in_features=640, out_features=640, bias=True)
      (1): Dropout(p=0.0, inplace=False)
    )
  )
  (norm3): LayerNorm((640,), eps=1e-05, elementwise_affine=True)
  (ff): Module(
    (net): Module(
      (0): Module(
        (proj): Linear(in_features=640, out_features=5120, bias=True)
      )
      (1): Dropout(p=0.0, inplace=False)
      (2): Linear(in_features=2560, out_features=640, bias=True)
    )
  )
)
LayerNorm((640,), eps=1e-05, elementwise_affine=True)
Module(
  (to_q): Linear(in_features=640, out_features=640, bias=False)
  (to_k): Linear(in_features=640, out_features=640, bias=False)
  (to_v): Linear(in_features=640, out_features=640, bias=False)
  (to_out): Module(
    (0): Linear(in_features=640, out_features=640, bias=True)
    (1): Dropout(p=0.0, inplace=False)
  )
)
Linear(in_features=640, out_features=640, bias=False)
Linear(in_features=640, out_features=640, bias=False)
Linear(in_features=640, out_features=640, bias=False)
Module(
  (0): Linear(in_features=640, out_features=640, bias=True)
  (1): Dropout(p=0.0, inplace=False)
)
Linear(in_features=640, out_features=640, bias=True)
Dropout(p=0.0, inplace=False)
LayerNorm((640,), eps=1e-05, elementwise_affine=True)
Module(
  (to_q): Linear(in_features=640, out_features=640, bias=False)
  (to_k): Linear(in_features=2048, out_features=640, bias=False)
  (to_v): Linear(in_features=2048, out_features=640, bias=False)
  (to_out): Module(
    (0): Linear(in_features=640, out_features=640, bias=True)
    (1): Dropout(p=0.0, inplace=False)
  )
)
Linear(in_features=640, out_features=640, bias=False)
Linear(in_features=2048, out_features=640, bias=False)
Linear(in_features=2048, out_features=640, bias=False)
Module(
  (0): Linear(in_features=640, out_features=640, bias=True)
  (1): Dropout(p=0.0, inplace=False)
)
Linear(in_features=640, out_features=640, bias=True)
Dropout(p=0.0, inplace=False)
LayerNorm((640,), eps=1e-05, elementwise_affine=True)
Module(
  (net): Module(
    (0): Module(
      (proj): Linear(in_features=640, out_features=5120, bias=True)
    )
    (1): Dropout(p=0.0, inplace=False)
    (2): Linear(in_features=2560, out_features=640, bias=True)
  )
)
Module(
  (0): Module(
    (proj): Linear(in_features=640, out_features=5120, bias=True)
  )
  (1): Dropout(p=0.0, inplace=False)
  (2): Linear(in_features=2560, out_features=640, bias=True)
)
Module(
  (proj): Linear(in_features=640, out_features=5120, bias=True)
)
Linear(in_features=640, out_features=5120, bias=True)
Dropout(p=0.0, inplace=False)
Linear(in_features=2560, out_features=640, bias=True)
Linear(in_features=640, out_features=640, bias=True)
Module(
  (norm): GroupNorm(32, 640, eps=1e-06, affine=True)
  (proj_in): Linear(in_features=640, out_features=640, bias=True)
  (transformer_blocks): Module(
    (0): Module(
      (norm1): LayerNorm((640,), eps=1e-05, elementwise_affine=True)
      (attn1): Module(
        (to_q): Linear(in_features=640, out_features=640, bias=False)
        (to_k): Linear(in_features=640, out_features=640, bias=False)
        (to_v): Linear(in_features=640, out_features=640, bias=False)
        (to_out): Module(
          (0): Linear(in_features=640, out_features=640, bias=True)
          (1): Dropout(p=0.0, inplace=False)
        )
      )
      (norm2): LayerNorm((640,), eps=1e-05, elementwise_affine=True)
      (attn2): Module(
        (to_q): Linear(in_features=640, out_features=640, bias=False)
        (to_k): Linear(in_features=2048, out_features=640, bias=False)
        (to_v): Linear(in_features=2048, out_features=640, bias=False)
        (to_out): Module(
          (0): Linear(in_features=640, out_features=640, bias=True)
          (1): Dropout(p=0.0, inplace=False)
        )
      )
      (norm3): LayerNorm((640,), eps=1e-05, elementwise_affine=True)
      (ff): Module(
        (net): Module(
          (0): Module(
            (proj): Linear(in_features=640, out_features=5120, bias=True)
          )
          (1): Dropout(p=0.0, inplace=False)
          (2): Linear(in_features=2560, out_features=640, bias=True)
        )
      )
    )
    (1): Module(
      (norm1): LayerNorm((640,), eps=1e-05, elementwise_affine=True)
      (attn1): Module(
        (to_q): Linear(in_features=640, out_features=640, bias=False)
        (to_k): Linear(in_features=640, out_features=640, bias=False)
        (to_v): Linear(in_features=640, out_features=640, bias=False)
        (to_out): Module(
          (0): Linear(in_features=640, out_features=640, bias=True)
          (1): Dropout(p=0.0, inplace=False)
        )
      )
      (norm2): LayerNorm((640,), eps=1e-05, elementwise_affine=True)
      (attn2): Module(
        (to_q): Linear(in_features=640, out_features=640, bias=False)
        (to_k): Linear(in_features=2048, out_features=640, bias=False)
        (to_v): Linear(in_features=2048, out_features=640, bias=False)
        (to_out): Module(
          (0): Linear(in_features=640, out_features=640, bias=True)
          (1): Dropout(p=0.0, inplace=False)
        )
      )
      (norm3): LayerNorm((640,), eps=1e-05, elementwise_affine=True)
      (ff): Module(
        (net): Module(
          (0): Module(
            (proj): Linear(in_features=640, out_features=5120, bias=True)
          )
          (1): Dropout(p=0.0, inplace=False)
          (2): Linear(in_features=2560, out_features=640, bias=True)
        )
      )
    )
  )
  (proj_out): Linear(in_features=640, out_features=640, bias=True)
)
GroupNorm(32, 640, eps=1e-06, affine=True)
Linear(in_features=640, out_features=640, bias=True)
Module(
  (0): Module(
    (norm1): LayerNorm((640,), eps=1e-05, elementwise_affine=True)
    (attn1): Module(
      (to_q): Linear(in_features=640, out_features=640, bias=False)
      (to_k): Linear(in_features=640, out_features=640, bias=False)
      (to_v): Linear(in_features=640, out_features=640, bias=False)
      (to_out): Module(
        (0): Linear(in_features=640, out_features=640, bias=True)
        (1): Dropout(p=0.0, inplace=False)
      )
    )
    (norm2): LayerNorm((640,), eps=1e-05, elementwise_affine=True)
    (attn2): Module(
      (to_q): Linear(in_features=640, out_features=640, bias=False)
      (to_k): Linear(in_features=2048, out_features=640, bias=False)
      (to_v): Linear(in_features=2048, out_features=640, bias=False)
      (to_out): Module(
        (0): Linear(in_features=640, out_features=640, bias=True)
        (1): Dropout(p=0.0, inplace=False)
      )
    )
    (norm3): LayerNorm((640,), eps=1e-05, elementwise_affine=True)
    (ff): Module(
      (net): Module(
        (0): Module(
          (proj): Linear(in_features=640, out_features=5120, bias=True)
        )
        (1): Dropout(p=0.0, inplace=False)
        (2): Linear(in_features=2560, out_features=640, bias=True)
      )
    )
  )
  (1): Module(
    (norm1): LayerNorm((640,), eps=1e-05, elementwise_affine=True)
    (attn1): Module(
      (to_q): Linear(in_features=640, out_features=640, bias=False)
      (to_k): Linear(in_features=640, out_features=640, bias=False)
      (to_v): Linear(in_features=640, out_features=640, bias=False)
      (to_out): Module(
        (0): Linear(in_features=640, out_features=640, bias=True)
        (1): Dropout(p=0.0, inplace=False)
      )
    )
    (norm2): LayerNorm((640,), eps=1e-05, elementwise_affine=True)
    (attn2): Module(
      (to_q): Linear(in_features=640, out_features=640, bias=False)
      (to_k): Linear(in_features=2048, out_features=640, bias=False)
      (to_v): Linear(in_features=2048, out_features=640, bias=False)
      (to_out): Module(
        (0): Linear(in_features=640, out_features=640, bias=True)
        (1): Dropout(p=0.0, inplace=False)
      )
    )
    (norm3): LayerNorm((640,), eps=1e-05, elementwise_affine=True)
    (ff): Module(
      (net): Module(
        (0): Module(
          (proj): Linear(in_features=640, out_features=5120, bias=True)
        )
        (1): Dropout(p=0.0, inplace=False)
        (2): Linear(in_features=2560, out_features=640, bias=True)
      )
    )
  )
)
Module(
  (norm1): LayerNorm((640,), eps=1e-05, elementwise_affine=True)
  (attn1): Module(
    (to_q): Linear(in_features=640, out_features=640, bias=False)
    (to_k): Linear(in_features=640, out_features=640, bias=False)
    (to_v): Linear(in_features=640, out_features=640, bias=False)
    (to_out): Module(
      (0): Linear(in_features=640, out_features=640, bias=True)
      (1): Dropout(p=0.0, inplace=False)
    )
  )
  (norm2): LayerNorm((640,), eps=1e-05, elementwise_affine=True)
  (attn2): Module(
    (to_q): Linear(in_features=640, out_features=640, bias=False)
    (to_k): Linear(in_features=2048, out_features=640, bias=False)
    (to_v): Linear(in_features=2048, out_features=640, bias=False)
    (to_out): Module(
      (0): Linear(in_features=640, out_features=640, bias=True)
      (1): Dropout(p=0.0, inplace=False)
    )
  )
  (norm3): LayerNorm((640,), eps=1e-05, elementwise_affine=True)
  (ff): Module(
    (net): Module(
      (0): Module(
        (proj): Linear(in_features=640, out_features=5120, bias=True)
      )
      (1): Dropout(p=0.0, inplace=False)
      (2): Linear(in_features=2560, out_features=640, bias=True)
    )
  )
)
LayerNorm((640,), eps=1e-05, elementwise_affine=True)
Module(
  (to_q): Linear(in_features=640, out_features=640, bias=False)
  (to_k): Linear(in_features=640, out_features=640, bias=False)
  (to_v): Linear(in_features=640, out_features=640, bias=False)
  (to_out): Module(
    (0): Linear(in_features=640, out_features=640, bias=True)
    (1): Dropout(p=0.0, inplace=False)
  )
)
Linear(in_features=640, out_features=640, bias=False)
Linear(in_features=640, out_features=640, bias=False)
Linear(in_features=640, out_features=640, bias=False)
Module(
  (0): Linear(in_features=640, out_features=640, bias=True)
  (1): Dropout(p=0.0, inplace=False)
)
Linear(in_features=640, out_features=640, bias=True)
Dropout(p=0.0, inplace=False)
LayerNorm((640,), eps=1e-05, elementwise_affine=True)
Module(
  (to_q): Linear(in_features=640, out_features=640, bias=False)
  (to_k): Linear(in_features=2048, out_features=640, bias=False)
  (to_v): Linear(in_features=2048, out_features=640, bias=False)
  (to_out): Module(
    (0): Linear(in_features=640, out_features=640, bias=True)
    (1): Dropout(p=0.0, inplace=False)
  )
)
Linear(in_features=640, out_features=640, bias=False)
Linear(in_features=2048, out_features=640, bias=False)
Linear(in_features=2048, out_features=640, bias=False)
Module(
  (0): Linear(in_features=640, out_features=640, bias=True)
  (1): Dropout(p=0.0, inplace=False)
)
Linear(in_features=640, out_features=640, bias=True)
Dropout(p=0.0, inplace=False)
LayerNorm((640,), eps=1e-05, elementwise_affine=True)
Module(
  (net): Module(
    (0): Module(
      (proj): Linear(in_features=640, out_features=5120, bias=True)
    )
    (1): Dropout(p=0.0, inplace=False)
    (2): Linear(in_features=2560, out_features=640, bias=True)
  )
)
Module(
  (0): Module(
    (proj): Linear(in_features=640, out_features=5120, bias=True)
  )
  (1): Dropout(p=0.0, inplace=False)
  (2): Linear(in_features=2560, out_features=640, bias=True)
)
Module(
  (proj): Linear(in_features=640, out_features=5120, bias=True)
)
Linear(in_features=640, out_features=5120, bias=True)
Dropout(p=0.0, inplace=False)
Linear(in_features=2560, out_features=640, bias=True)
Module(
  (norm1): LayerNorm((640,), eps=1e-05, elementwise_affine=True)
  (attn1): Module(
    (to_q): Linear(in_features=640, out_features=640, bias=False)
    (to_k): Linear(in_features=640, out_features=640, bias=False)
    (to_v): Linear(in_features=640, out_features=640, bias=False)
    (to_out): Module(
      (0): Linear(in_features=640, out_features=640, bias=True)
      (1): Dropout(p=0.0, inplace=False)
    )
  )
  (norm2): LayerNorm((640,), eps=1e-05, elementwise_affine=True)
  (attn2): Module(
    (to_q): Linear(in_features=640, out_features=640, bias=False)
    (to_k): Linear(in_features=2048, out_features=640, bias=False)
    (to_v): Linear(in_features=2048, out_features=640, bias=False)
    (to_out): Module(
      (0): Linear(in_features=640, out_features=640, bias=True)
      (1): Dropout(p=0.0, inplace=False)
    )
  )
  (norm3): LayerNorm((640,), eps=1e-05, elementwise_affine=True)
  (ff): Module(
    (net): Module(
      (0): Module(
        (proj): Linear(in_features=640, out_features=5120, bias=True)
      )
      (1): Dropout(p=0.0, inplace=False)
      (2): Linear(in_features=2560, out_features=640, bias=True)
    )
  )
)
LayerNorm((640,), eps=1e-05, elementwise_affine=True)
Module(
  (to_q): Linear(in_features=640, out_features=640, bias=False)
  (to_k): Linear(in_features=640, out_features=640, bias=False)
  (to_v): Linear(in_features=640, out_features=640, bias=False)
  (to_out): Module(
    (0): Linear(in_features=640, out_features=640, bias=True)
    (1): Dropout(p=0.0, inplace=False)
  )
)
Linear(in_features=640, out_features=640, bias=False)
Linear(in_features=640, out_features=640, bias=False)
Linear(in_features=640, out_features=640, bias=False)
Module(
  (0): Linear(in_features=640, out_features=640, bias=True)
  (1): Dropout(p=0.0, inplace=False)
)
Linear(in_features=640, out_features=640, bias=True)
Dropout(p=0.0, inplace=False)
LayerNorm((640,), eps=1e-05, elementwise_affine=True)
Module(
  (to_q): Linear(in_features=640, out_features=640, bias=False)
  (to_k): Linear(in_features=2048, out_features=640, bias=False)
  (to_v): Linear(in_features=2048, out_features=640, bias=False)
  (to_out): Module(
    (0): Linear(in_features=640, out_features=640, bias=True)
    (1): Dropout(p=0.0, inplace=False)
  )
)
Linear(in_features=640, out_features=640, bias=False)
Linear(in_features=2048, out_features=640, bias=False)
Linear(in_features=2048, out_features=640, bias=False)
Module(
  (0): Linear(in_features=640, out_features=640, bias=True)
  (1): Dropout(p=0.0, inplace=False)
)
Linear(in_features=640, out_features=640, bias=True)
Dropout(p=0.0, inplace=False)
LayerNorm((640,), eps=1e-05, elementwise_affine=True)
Module(
  (net): Module(
    (0): Module(
      (proj): Linear(in_features=640, out_features=5120, bias=True)
    )
    (1): Dropout(p=0.0, inplace=False)
    (2): Linear(in_features=2560, out_features=640, bias=True)
  )
)
Module(
  (0): Module(
    (proj): Linear(in_features=640, out_features=5120, bias=True)
  )
  (1): Dropout(p=0.0, inplace=False)
  (2): Linear(in_features=2560, out_features=640, bias=True)
)
Module(
  (proj): Linear(in_features=640, out_features=5120, bias=True)
)
Linear(in_features=640, out_features=5120, bias=True)
Dropout(p=0.0, inplace=False)
Linear(in_features=2560, out_features=640, bias=True)
Linear(in_features=640, out_features=640, bias=True)
Module(
  (0): Module(
    (conv): Conv2d(640, 640, kernel_size=(3, 3), stride=(1, 1), padding=(1, 1))
  )
)
Module(
  (conv): Conv2d(640, 640, kernel_size=(3, 3), stride=(1, 1), padding=(1, 1))
)
Conv2d(640, 640, kernel_size=(3, 3), stride=(1, 1), padding=(1, 1))
Module(
  (resnets): Module(
    (0): Module(
      (norm1): GroupNorm(32, 960, eps=1e-05, affine=True)
      (nonlinearity): SiLU()
      (conv1): Conv2d(960, 320, kernel_size=(3, 3), stride=(1, 1), padding=(1, 1))
      (time_emb_proj): Linear(in_features=1280, out_features=320, bias=True)
      (norm2): GroupNorm(32, 320, eps=1e-05, affine=True)
      (dropout): Dropout(p=0.0, inplace=False)
      (conv2): Conv2d(320, 320, kernel_size=(3, 3), stride=(1, 1), padding=(1, 1))
      (conv_shortcut): Conv2d(960, 320, kernel_size=(1, 1), stride=(1, 1))
    )
    (1): Module(
      (norm1): GroupNorm(32, 640, eps=1e-05, affine=True)
      (nonlinearity): SiLU()
      (conv1): Conv2d(640, 320, kernel_size=(3, 3), stride=(1, 1), padding=(1, 1))
      (time_emb_proj): Linear(in_features=1280, out_features=320, bias=True)
      (norm2): GroupNorm(32, 320, eps=1e-05, affine=True)
      (dropout): Dropout(p=0.0, inplace=False)
      (conv2): Conv2d(320, 320, kernel_size=(3, 3), stride=(1, 1), padding=(1, 1))
      (conv_shortcut): Conv2d(640, 320, kernel_size=(1, 1), stride=(1, 1))
    )
    (2): Module(
      (norm1): GroupNorm(32, 640, eps=1e-05, affine=True)
      (nonlinearity): SiLU()
      (conv1): Conv2d(640, 320, kernel_size=(3, 3), stride=(1, 1), padding=(1, 1))
      (time_emb_proj): Linear(in_features=1280, out_features=320, bias=True)
      (norm2): GroupNorm(32, 320, eps=1e-05, affine=True)
      (dropout): Dropout(p=0.0, inplace=False)
      (conv2): Conv2d(320, 320, kernel_size=(3, 3), stride=(1, 1), padding=(1, 1))
      (conv_shortcut): Conv2d(640, 320, kernel_size=(1, 1), stride=(1, 1))
    )
  )
)
Module(
  (0): Module(
    (norm1): GroupNorm(32, 960, eps=1e-05, affine=True)
    (nonlinearity): SiLU()
    (conv1): Conv2d(960, 320, kernel_size=(3, 3), stride=(1, 1), padding=(1, 1))
    (time_emb_proj): Linear(in_features=1280, out_features=320, bias=True)
    (norm2): GroupNorm(32, 320, eps=1e-05, affine=True)
    (dropout): Dropout(p=0.0, inplace=False)
    (conv2): Conv2d(320, 320, kernel_size=(3, 3), stride=(1, 1), padding=(1, 1))
    (conv_shortcut): Conv2d(960, 320, kernel_size=(1, 1), stride=(1, 1))
  )
  (1): Module(
    (norm1): GroupNorm(32, 640, eps=1e-05, affine=True)
    (nonlinearity): SiLU()
    (conv1): Conv2d(640, 320, kernel_size=(3, 3), stride=(1, 1), padding=(1, 1))
    (time_emb_proj): Linear(in_features=1280, out_features=320, bias=True)
    (norm2): GroupNorm(32, 320, eps=1e-05, affine=True)
    (dropout): Dropout(p=0.0, inplace=False)
    (conv2): Conv2d(320, 320, kernel_size=(3, 3), stride=(1, 1), padding=(1, 1))
    (conv_shortcut): Conv2d(640, 320, kernel_size=(1, 1), stride=(1, 1))
  )
  (2): Module(
    (norm1): GroupNorm(32, 640, eps=1e-05, affine=True)
    (nonlinearity): SiLU()
    (conv1): Conv2d(640, 320, kernel_size=(3, 3), stride=(1, 1), padding=(1, 1))
    (time_emb_proj): Linear(in_features=1280, out_features=320, bias=True)
    (norm2): GroupNorm(32, 320, eps=1e-05, affine=True)
    (dropout): Dropout(p=0.0, inplace=False)
    (conv2): Conv2d(320, 320, kernel_size=(3, 3), stride=(1, 1), padding=(1, 1))
    (conv_shortcut): Conv2d(640, 320, kernel_size=(1, 1), stride=(1, 1))
  )
)
Module(
  (norm1): GroupNorm(32, 960, eps=1e-05, affine=True)
  (nonlinearity): SiLU()
  (conv1): Conv2d(960, 320, kernel_size=(3, 3), stride=(1, 1), padding=(1, 1))
  (time_emb_proj): Linear(in_features=1280, out_features=320, bias=True)
  (norm2): GroupNorm(32, 320, eps=1e-05, affine=True)
  (dropout): Dropout(p=0.0, inplace=False)
  (conv2): Conv2d(320, 320, kernel_size=(3, 3), stride=(1, 1), padding=(1, 1))
  (conv_shortcut): Conv2d(960, 320, kernel_size=(1, 1), stride=(1, 1))
)
GroupNorm(32, 960, eps=1e-05, affine=True)
SiLU()
Conv2d(960, 320, kernel_size=(3, 3), stride=(1, 1), padding=(1, 1))
Linear(in_features=1280, out_features=320, bias=True)
GroupNorm(32, 320, eps=1e-05, affine=True)
Dropout(p=0.0, inplace=False)
Conv2d(320, 320, kernel_size=(3, 3), stride=(1, 1), padding=(1, 1))
Conv2d(960, 320, kernel_size=(1, 1), stride=(1, 1))
Module(
  (norm1): GroupNorm(32, 640, eps=1e-05, affine=True)
  (nonlinearity): SiLU()
  (conv1): Conv2d(640, 320, kernel_size=(3, 3), stride=(1, 1), padding=(1, 1))
  (time_emb_proj): Linear(in_features=1280, out_features=320, bias=True)
  (norm2): GroupNorm(32, 320, eps=1e-05, affine=True)
  (dropout): Dropout(p=0.0, inplace=False)
  (conv2): Conv2d(320, 320, kernel_size=(3, 3), stride=(1, 1), padding=(1, 1))
  (conv_shortcut): Conv2d(640, 320, kernel_size=(1, 1), stride=(1, 1))
)
GroupNorm(32, 640, eps=1e-05, affine=True)
SiLU()
Conv2d(640, 320, kernel_size=(3, 3), stride=(1, 1), padding=(1, 1))
Linear(in_features=1280, out_features=320, bias=True)
GroupNorm(32, 320, eps=1e-05, affine=True)
Dropout(p=0.0, inplace=False)
Conv2d(320, 320, kernel_size=(3, 3), stride=(1, 1), padding=(1, 1))
Conv2d(640, 320, kernel_size=(1, 1), stride=(1, 1))
Module(
  (norm1): GroupNorm(32, 640, eps=1e-05, affine=True)
  (nonlinearity): SiLU()
  (conv1): Conv2d(640, 320, kernel_size=(3, 3), stride=(1, 1), padding=(1, 1))
  (time_emb_proj): Linear(in_features=1280, out_features=320, bias=True)
  (norm2): GroupNorm(32, 320, eps=1e-05, affine=True)
  (dropout): Dropout(p=0.0, inplace=False)
  (conv2): Conv2d(320, 320, kernel_size=(3, 3), stride=(1, 1), padding=(1, 1))
  (conv_shortcut): Conv2d(640, 320, kernel_size=(1, 1), stride=(1, 1))
)
GroupNorm(32, 640, eps=1e-05, affine=True)
SiLU()
Conv2d(640, 320, kernel_size=(3, 3), stride=(1, 1), padding=(1, 1))
Linear(in_features=1280, out_features=320, bias=True)
GroupNorm(32, 320, eps=1e-05, affine=True)
Dropout(p=0.0, inplace=False)
Conv2d(320, 320, kernel_size=(3, 3), stride=(1, 1), padding=(1, 1))
Conv2d(640, 320, kernel_size=(1, 1), stride=(1, 1))
…
